TST/model.pth (torch, 68310 bytes, 68 tensors)

positional_encoder f4 [24, 16]
0	0x3fc3d073	1.5297989
1	0xbedec213	-0.43507442
2	0xbeb4cc22	-0.3531199
3	0x3e8794db	0.26480755
4	0x3f890c34	1.0706849
5	0xbfc40399	-1.5313598
6	0xbf7c06cd	-0.9844788
7	0x3ded24e4	0.11579302
8	0xbfa904cb	-1.3204588
9	0xbfa24719	-1.2677947
10	0x3ebe815c	0.37208068
11	0xbe58dccb	-0.21177976
12	0xbf2fbf5a	-0.68651354
13	0x3feab428	1.8336229
14	0xbfab5ff0	-1.3388653
15	0x400e4069	2.2226813
16	0xbf0784af	-0.52936834
17	0xbf465a67	-0.77481693
18	0xbeb1c08b	-0.3471721
19	0xbf80aa84	-1.0052037
20	0x3e14f9b7	0.14548384
21	0x3f1d22dd	0.6138132
22	0xbffe7bf2	-1.9881575
23	0x3e482843	0.19546609
24	0xbf82ff39	-1.0234138
25	0xbf01fd5e	-0.5077723
26	0xbbd4b061	-0.0064907526
27	0x3f24cd52	0.64375794
28	0xc022b501	-2.5422976
29	0x3e9f0b26	0.31063193
30	0x3ea0c4cf	0.31400153
31	0xbf4930b3	-0.78589934
32	0x3e814005	0.25244156
33	0x3eef337b	0.46718964
34	0x3ee94245	0.45558372
35	0xbf47d780	-0.780632
36	0x3f0bb97d	0.5457991
37	0x3e1f489d	0.15555044
38	0x3e06473d	0.13113113
39	0xbf8dd7ec	-1.1081519
40	0x3f4c2ff0	0.79760647
41	0x3d516a34	0.051126674
42	0xbf76f17a	-0.96462214
43	0x3f2eb3ea	0.6824328
44	0x3f1d7d97	0.6151976
45	0x3e7d9283	0.24762921
46	0x3e4ecc93	0.20195226
47	0xbe40a387	-0.1881238
48	0x3f5216ac	0.82065845
49	0x3deccecc	0.11562881
50	0x3e93e0a3	0.28882322
51	0xbd5530ea	-0.0520486
52	0xbfd05d8d	-1.627855
53	0xc0064471	-2.0979273
54	0x3e7b769a	0.24556962
55	0x3f8802e1	1.0625879
56	0x3f36b975	0.71376735
57	0x3fb3364a	1.4000943
58	0xbf161355	-0.5862325
59	0x3f96abc9	1.1771175
60	0xc01fb70c	-2.4955473
61	0x3efe2915	0.49640718
62	0xbf067a33	-0.5253021
63	0x3eee50c6	0.46546
64	0xbfb5e859	-1.4211532
65	0xbf1b6daf	-0.6071424
66	0xbf4970c5	-0.786877
67	0xbfaa88c3	-1.3322986
68	0x3e2c2f43	0.16814904
69	0xbf211c96	-0.62934244
70	0xbebc62a8	-0.3679402
71	0x3f7e33bf	0.9929771
72	0x3e8f4a73	0.27986488
73	0xbeb9f445	-0.36319175
74	0xbf1d5d9a	-0.6147095
75	0xbef6cba2	-0.48202235
76	0xbecb5ce4	-0.39719307
77	0x3ec43acc	0.38326108
78	0xbfc0013b	-1.5000376
79	0xbf1e52eb	-0.6184527
80	0x3f8fcf3a	1.1235116
81	0x3e8e24c0	0.27762413
82	0x3fd7715b	1.6831468
83	0xbf31c42e	-0.6943997
84	0xbda24f94	-0.079253346
85	0xbfd881a1	-1.691456
86	0xbccb82b3	-0.024842596
87	0xbf5e712c	-0.86891437
88	0x3ee662b2	0.44997174
89	0x3fa354e0	1.2760277
90	0x3bff776e	0.0077962196
91	0x3f1933e3	0.598448
92	0xbf4a3f86	-0.7900318
93	0xbfe22513	-1.7667564
94	0x3f07e37b	0.5308148
95	0x3e883786	0.2660486
96	0xbff9cc0d	-1.9515396
97	0x3d29eb13	0.04148395
98	0x3ec0e0ff	0.37671658
99	0x3e29d2fc	0.1658439
100	0xbfa7dc9d	-1.3114201
101	0x3f297d29	0.66206604
102	0x3e085b8f	0.13316177
103	0xbf15acd8	-0.58466864
104	0x3f88abf7	1.067748
105	0xbe1e05e7	-0.15431939
106	0x3e8e07c6	0.27740306
107	0xbf9f458e	-1.2443101
108	0xbeef324b	-0.46718058
109	0x3e4babbe	0.19889733
110	0xbf7dfb08	-0.9921117
111	0x3fd2cc79	1.646865
112	0xbdcb5c6f	-0.0992974
113	0x3fd916f9	1.6960136
114	0xbe6efefc	-0.23339456
115	0xbf69d9b9	-0.91347843
116	0xbff4f69c	-1.9137759
117	0x3ce989a0	0.028508008
118	0xbfa7dc1c	-1.3114047
119	0xbea48024	-0.32129014
120	0x3f28d288	0.65946245
121	0xbf03be0a	-0.5146185
122	0xbf708d4f	-0.9396562
123	0x3e76e7c6	0.24111852
124	0xbe89f64a	-0.26945716
125	0xbd7b78c5	-0.06139447
126	0x3f4d26d3	0.80137366
127	0x3f9be455	1.2179056
128	0x3e4d0dd4	0.20024806
129	0x3f9d9349	1.2310573
130	0x3f9cd471	1.2252332
131	0xbf53acdb	-0.8268563
132	0xbfdf6aa6	-1.7454422
133	0xbf07b7c8	-0.530148
134	0xbe5fd9c8	-0.2186042
135	0x3f3b695b	0.73207635
136	0x3f1b421b	0.60647744
137	0x3f94662e	1.1593683
138	0xbe27022c	-0.16309422
139	0x3f1bd6a2	0.6087438
140	0x3fce7c20	1.613163
141	0x3f4822af	0.7817792
142	0x3f4cf313	0.800584
143	0xc00946d2	-2.1449475
144	0xbfb88ab3	-1.4417328
145	0xbf94c827	-1.1623582
146	0xbf32a09c	-0.6977632
147	0x3f85050b	1.0392164
148	0x3f9e79a3	1.238087
149	0x3f88d34f	1.0689486
150	0x3ed73e95	0.42039934
151	0x3f492c13	0.78582877
152	0xbf129cb0	-0.57270336
153	0xbfbe9063	-1.4887813
154	0xbfdbe8f4	-1.7180467
155	0x3f955b02	1.1668398
156	0x3e20eee1	0.15716125
157	0x3eabd65a	0.33561975
158	0x3f493bd3	0.7860691
159	0xbf1edee7	-0.6205887
160	0x3fa9080e	1.3205583
161	0x3f0687bc	0.52550864
162	0x3faaa94c	1.3332915
163	0xbe62e6f8	-0.2215842
164	0x3f778b74	0.96697164
165	0x3e2a06b9	0.16604127
166	0x3fba661a	1.4562409
167	0x3cc60e31	0.024176689
168	0xbfac813b	-1.3476938
169	0xbfa1588d	-1.2605149
170	0x3f12ac88	0.5729451
171	0xbfdaec0b	-1.7103285
172	0x3ede1ade	0.43379873
173	0x3fe4e894	1.7883477
174	0xbf855154	-1.0415444
175	0xbf28e697	-0.6597685
176	0x3ee9b8a0	0.4564867
177	0xbddbb92f	-0.1072868
178	0x3e4067f9	0.18789662
179	0x3f6269b7	0.8844256
180	0xbf80bc69	-1.0057498
181	0xbf8be68f	-1.0929736
182	0x3eeddebe	0.46459
183	0xbdc63de4	-0.096797734
184	0x3f214a88	0.6300435
185	0x4017b691	2.370518
186	0x3e3e82a9	0.1860453
187	0xbf7282a5	-0.947306
188	0x3c63acbf	0.013896166
189	0x3f5ad922	0.8548757
190	0x3df507fc	0.119644135
191	0xba09180a	-0.00052297174
192	0xc01cd5dc	-2.450553
193	0xbf4a7375	-0.79082423
194	0xbe3b96eb	-0.1831929
195	0x3f99baf4	1.2010179
196	0xbfc13aa2	-1.5096018
197	0x3fcc77a2	1.5974009
198	0x3d081620	0.033224225
199	0xbec9930e	-0.39370006
200	0x3ea37943	0.31928453
201	0x3e3f4017	0.18676792
202	0xbf0d6f5a	-0.55248034
203	0xbf9c9909	-1.2234203
204	0x3e12e34b	0.14344518
205	0x3f27c7fc	0.65539527
206	0xbf0ef05a	-0.558355
207	0xbec3bba3	-0.38229093
208	0xbf37de22	-0.7182332
209	0x3d386abf	0.045023676
210	0x3f29bbe3	0.6630232
211	0x3fdf117f	1.7427214
212	0xbc2c9efd	-0.010535953
213	0xbf97a800	-1.1848145
214	0x3f67469f	0.90342134
215	0x3f62ebd3	0.8864109
216	0xbf5928a6	-0.8482765
217	0xbfbdce51	-1.4828588
218	0xbf24adeb	-0.6432788
219	0x3f8fabe7	1.1224335
220	0x3fbf7764	1.495831
221	0xbea7c338	-0.32766128
222	0xc04f50fd	-3.2393181
223	0xbf2e32d9	-0.6804634
224	0xc0047758	-2.0697842
225	0xbfc9317c	-1.5718226
226	0x3e8f8ceb	0.280372
227	0xbf83138c	-1.024034
228	0xbed5a39f	-0.41726395
229	0x3f889112	1.0669272
230	0x3f4bc11c	0.79591537
231	0x3e289a44	0.16465098
232	0x3ecaf31b	0.396386
233	0x3f099bc5	0.5375331
234	0xbf941037	-1.1567448
235	0x3ed9f0fc	0.4256667
236	0xbe556627	-0.2083975
237	0x3e897142	0.2684422
238	0x3e43207e	0.19055364
239	0xbfc2105f	-1.5161246
240	0x3f544d82	0.8293077
241	0xbeb34233	-0.35011443
242	0xbf045af3	-0.5170128
243	0x3d5ec92e	0.05439108
244	0xbe1ae651	-0.15126921
245	0x3f7eaca8	0.994822
246	0xbf38de7e	-0.72214496
247	0x3f05b085	0.5222247
248	0x3f253b44	0.6454356
249	0xc006d606	-2.106813
250	0xbf67c6a0	-0.9053745
251	0xbfd57d4f	-1.6678866
252	0x3cf0861f	0.029360829
253	0xbe4ed94c	-0.2020008
254	0xbfbbd0d6	-1.4673107
255	0x3ebf6694	0.37382948

embedding_projection.weight f4 [16, 6]
0	0x3e969500	0.29410553
1	0xbe516c4f	-0.20451473
2	0x3ec274bd	0.3797969
3	0xbdc5c159	-0.09656019
4	0x3e8dd1ba	0.2769907
5	0x3d8e6bed	0.06954179
6	0x3eb6fe57	0.3574092
7	0x399b94b4	0.00029674696
8	0xbe1ba947	-0.15201293
9	0x3e35e73b	0.17763989
10	0x3ea623b9	0.3244913
11	0x3e503f05	0.2033654
12	0xbeafe51b	-0.3435448
13	0x3e9eff62	0.31054217
14	0xbe275877	-0.1634234
15	0xbec99877	-0.39374134
16	0xbe94ce5a	-0.29063684
17	0x3e5b7301	0.2143059
18	0xbc1a790c	-0.009428274
19	0xbe305345	-0.17219265
20	0xbeb60b97	-0.35555717
21	0x3d411425	0.047138352
22	0xbd81dee3	-0.063413404
23	0xbd10f8e6	-0.035393618
24	0x3db129e9	0.08650572
25	0xbe8a4414	-0.27005064
26	0x3dffae69	0.12484438
27	0xbe15e976	-0.1463984
28	0x3eb8dcf3	0.3610607
29	0xbebc0ead	-0.36729947
30	0x3e8b4028	0.27197385
31	0x3e51fb52	0.20506027
32	0x3eb06dbf	0.3445873
33	0xbe0b3834	-0.13595659
34	0xbe455d6b	-0.19273917
35	0x3e330d28	0.17485487
36	0xbe8b0791	-0.2715421
37	0xbe8ccbef	-0.2749934
38	0x3da8aed6	0.08236472
39	0xbcfe48ac	-0.031040512
40	0xbe5e2749	-0.21694674
41	0xbe77db9d	-0.2420487
42	0x3c9f68ee	0.019459214
43	0xbe9b4f68	-0.3033402
44	0xbd8ac19c	-0.06775209
45	0x3d35890c	0.04432015
46	0x3e5b12c2	0.21393874
47	0xbd842605	-0.06452564
48	0x3e113b67	0.14182816
49	0xbe8bd0e9	-0.27307823
50	0xbebaf3b5	-0.3651406
51	0x3e13be3d	0.14428039
52	0xbea87734	-0.32903445
53	0x3dc44ac7	0.09584575
54	0x3e812862	0.25226122
55	0x3e1defd5	0.1542352
56	0x3e937162	0.28797442
57	0x3d0ed99d	0.0348755
58	0xbd2ebb01	-0.04265881
59	0xbe7b23d4	-0.24525386
60	0x3dc5773a	0.09641881
61	0xbe29f40e	-0.16597006
62	0xbd972188	-0.073794425
63	0x3ebb7f32	0.3662048
64	0x3e6f8f71	0.23394562
65	0x3c31ffbb	0.010864194
66	0x3dc92719	0.098219104
67	0xbe85fbaa	-0.26168567
68	0x3da114e4	0.07865313
69	0xbe073fa0	-0.13207865
70	0xbed165b3	-0.40897903
71	0x3ca3094c	0.019901894
72	0xbe5e49a0	-0.21707773
73	0xbd7a0259	-0.061037395
74	0xbe298ee2	-0.16558412
75	0xbe8b7507	-0.27237722
76	0x3e5564f5	0.20839293
77	0xbda5a590	-0.08088219
78	0xbe9889e7	-0.2979271
79	0xbecf2ac4	-0.40462315
80	0xbe8e087f	-0.27740857
81	0xbe4e2abf	-0.20133494
82	0xbec5e4f6	-0.38651246
83	0xbd30b370	-0.043139875
84	0x3d531a9f	0.05153906
85	0xbeac951b	-0.33707508
86	0xbe093115	-0.1339763
87	0xbe6637a2	-0.2248216
88	0xbcc22487	-0.023699058
89	0x3e7673da	0.24067631
90	0x3d210e38	0.0393202
91	0xbd82d44e	-0.0638815
92	0x3c4ba19c	0.012428667
93	0xbe3d40cc	-0.1848175
94	0x3eba4a08	0.36384606
95	0xbd1f64e2	-0.03891457

embedding_projection.bias f4 [16]
0	0x3e0ed101	0.13946916
1	0xbe92ca64	-0.28670037
2	0xbe5d59fd	-0.21616359
3	0xbddf6fdb	-0.109100066
4	0xbeb7fe58	-0.35936236
5	0x3c83c304	0.016084202
6	0xbec51401	-0.38491824
7	0xbec79421	-0.389802
8	0xbd5e2fc8	-0.054244787
9	0xbdc1ab28	-0.094564736
10	0xbe7e0a3a	-0.24808589
11	0xbea094be	-0.3136348
12	0xbe845562	-0.25846392
13	0x3e25406e	0.16137859
14	0x3cc0fa14	0.023556747
15	0xbe31eb0d	-0.17374821

mlp.0.weight f4 [16, 2]
0	0xbd909e9c	-0.07061502
1	0xbecb8a28	-0.39753842
2	0xbe8f38b9	-0.27972963
3	0xbf2c086a	-0.6720034
4	0xbeaa8715	-0.33306184
5	0xbc3985e3	-0.011323425
6	0xbf21b9ac	-0.6317394
7	0x3f10802d	0.5644558
8	0xbf2778db	-0.65418786
9	0x3ec657c7	0.38738844
10	0xbec19057	-0.37805435
11	0x3f127fa9	0.57226044
12	0xbe6d888d	-0.23196621
13	0x3e8b9e6d	0.27269307
14	0xbd817755	-0.06321589
15	0xbbc94bd2	-0.0061430717
16	0x3f08b4b9	0.5340076
17	0x3dc2e50e	0.09516345
18	0xbca44813	-0.020053899
19	0x3f18af25	0.5964225
20	0x3e3f521a	0.18683663
21	0xbdba882b	-0.09108003
22	0x3e4d9890	0.20077729
23	0x3ea2f692	0.31828743
24	0x3e27d44f	0.16389583
25	0x3f191b57	0.5980734
26	0xbee968dd	-0.45587817
27	0x3ec6fc2c	0.38864267
28	0xbe1a96be	-0.15096566
29	0x3f025d6c	0.509238
30	0x3e21c23b	0.1579675
31	0xbea307a0	-0.31841755

mlp.0.bias f4 [16]
0	0xbf2206c3	-0.6329157
1	0xbe859af1	-0.26094773
2	0x3f23362f	0.6375455
3	0x3f1cb7a6	0.61217725
4	0x3e89e7cc	0.2693466
5	0x3ef2e254	0.474383
6	0xbefc3ca9	-0.4926503
7	0x3e8ff563	0.28116903
8	0xbf293041	-0.66089255
9	0xbe4903ed	-0.19630404
10	0x3ed14d5d	0.40879336
11	0xbe254f2d	-0.16143484
12	0xbee73dd7	-0.45164368
13	0x3e8846dc	0.2661656
14	0xbf1932c0	-0.59843063
15	0x3f05f7c6	0.523312

mlp.2.weight f4 [16, 16]
0	0x3d6170b0	0.055039108
1	0xbc67f0e0	-0.01415655
2	0xbd1a7a80	-0.03771448
3	0xbdbd6378	-0.09247488
4	0xbe7ff782	-0.2499676
5	0x3d7f7da0	0.062375665
6	0x3df4d018	0.11953753
7	0xbc25eda0	-0.010127455
8	0xbe3ce5d9	-0.18447055
9	0x3e482c6b	0.19548194
10	0x3e59b17f	0.21259116
11	0xbe7c0376	-0.24610695
12	0xbc8e83df	-0.017396865
13	0x3e1a206e	0.15051433
14	0xbe4726cb	-0.19448392
15	0xbd80951e	-0.06278442
16	0x3cc6df80	0.024276495
17	0xbcb3ab90	-0.021932393
18	0x3dcdee8c	0.10055265
19	0xbdd68ab0	-0.10475671
20	0x3dfa1e5c	0.12212822
21	0x3e6f73c2	0.23384002
22	0xbda7a82c	-0.08186373
23	0x3d5b3630	0.053518474
24	0x3d4ea2cd	0.050448228
25	0x3e117141	0.14203359
26	0x3df6507c	0.1202707
27	0x3e3a88e3	0.1821628
28	0x3e4a90e6	0.19781837
29	0x3e06bba0	0.13157511
30	0x3bcaa394	0.006184051
31	0x3d9dd60c	0.07706842
32	0xbe141574	-0.14461309
33	0x3cfe9660	0.031077564
34	0x3d84676c	0.06465039
35	0xbdbce1a0	-0.09222722
36	0xbda327a0	-0.07966542
37	0xbcc2fa90	-0.023801118
38	0xbdfcec70	-0.123497844
39	0x3e587302	0.21137622
40	0xbe33889b	-0.1753258
41	0x3dbb099c	0.09132692
42	0x3d4e14d7	0.050312843
43	0xbe5667fe	-0.20938107
44	0xbdbc7a6b	-0.09203037
45	0x3c567780	0.013090014
46	0x3df12b27	0.11775809
47	0x3def1727	0.11674338
48	0x3e365ed0	0.17809606
49	0xbda442f8	-0.08020586
50	0x3dd5ece0	0.10445571
51	0xbd22ae90	-0.039717257
52	0xbb304580	-0.0026896894
53	0xbe02783a	-0.12741175
54	0x3de91424	0.11380795
55	0x3e4759c6	0.1946784
56	0x3e84b65c	0.2592038
57	0x3d9058e7	0.07048207
58	0xbdf6845c	-0.12036964
59	0x3e1ebde3	0.15502124
60	0x3b92820b	0.0044710687
61	0xbe6d4c54	-0.23173648
62	0xbde2ea7d	-0.11079881
63	0x3de07f59	0.1096179
64	0xbd4acc58	-0.049511284
65	0x3e5384a0	0.20656061
66	0xbdcbed40	-0.09957361
67	0xbe56d786	-0.20980653
68	0x3d9fa844	0.07795766
69	0xbe401238	-0.1875695
70	0x3e65dfe0	0.22448683
71	0xbe32e48c	-0.17469996
72	0xbd2a5e8c	-0.041594073
73	0xbdc30852	-0.09523071
74	0x3e237aba	0.15964785
75	0x3e254097	0.1613792
76	0x3e2b84fe	0.16749951
77	0xbe40a53a	-0.18813029
78	0x3d3f4e07	0.046705272
79	0xbd050e13	-0.032484125
80	0x3e30b4e0	0.17256498
81	0x3e4c8924	0.1997419
82	0xbe4c94a2	-0.19978574
83	0x3e47bfee	0.19506809
84	0xbda97c0c	-0.08275613
85	0x3e685984	0.22690398
86	0x3dc23b0c	0.094839185
87	0x3ac91d00	0.0015343726
88	0xbe0e49af	-0.13895296
89	0x3dabb331	0.083837874
90	0x3e387145	0.18011959
91	0xb99327b8	-0.00028067618
92	0xbe66bff9	-0.2253417
93	0x3e189052	0.14898804
94	0xbe565b93	-0.2093337
95	0x3e4c317d	0.19940753
96	0x3e49eafa	0.19718543
97	0xbe398d56	-0.18120322
98	0xbe7b63ba	-0.24549761
99	0xbd875ca4	-0.06609467
100	0xbe3eab74	-0.18620092
101	0xbe6912b4	-0.22761041
102	0xbe2c6f26	-0.16839275
103	0x3c519720	0.012792379
104	0x3e3b6004	0.18298346
105	0x3beb1123	0.0071736737
106	0xbdec9ed1	-0.11553729
107	0x3de6c929	0.11268837
108	0xbe1cd58b	-0.15315835
109	0x3e77aa24	0.24185997
110	0x3e3bc321	0.18336155
111	0xbdadcf3f	-0.08486795
112	0xbda081d8	-0.07837266
113	0x3e63436c	0.22193688
114	0x3de98db8	0.11403984
115	0xbdb5a2ec	-0.088689655
116	0xbcd1acb0	-0.02559504
117	0xbc114400	-0.00886631
118	0xbe7193dc	-0.2359156
119	0xbd6de0f0	-0.058075845
120	0x3d495a3f	0.04915833
121	0x3db96dc4	0.09054139
122	0xbe0e3e0c	-0.13890857
123	0xbe586a35	-0.21134265
124	0xbdb95ab8	-0.09050506
125	0xbe1fcce6	-0.15605506
126	0xbd9d4e92	-0.07681002
127	0xbc58c4a5	-0.013230477
128	0x3d04b2d8	0.03239712
129	0xbe7c458c	-0.24635905
130	0x3cb7c800	0.022434235
131	0xbe62284a	-0.22085682
132	0xbdfa3a58	-0.122181594
133	0xbddef0e8	-0.10885793
134	0x3dfb7544	0.12278226
135	0xbde2a3b0	-0.11066377
136	0xbe54aeaf	-0.20769762
137	0x3d4ba7a2	0.049720414
138	0x3e26882b	0.16262881
139	0xbdc5857d	-0.096446015
140	0xbc73b22c	-0.014874022
141	0xbd7a5118	-0.061112493
142	0xbe25d1be	-0.16193292
143	0x3e27979b	0.16366427
144	0x3dd60354	0.104498535
145	0x3d5c1f70	0.05374092
146	0x3e2a07b2	0.16604498
147	0x3e504f0e	0.20342657
148	0x3e020556	0.12697348
149	0xbe3c7b5e	-0.18406436
150	0xbe047752	-0.12936142
151	0x3e3a14d0	0.18172002
152	0x3e527623	0.20552878
153	0xbdbcb42e	-0.09214054
154	0x3e52b611	0.20577265
155	0xbcd370a4	-0.025810547
156	0xbe4bb95d	-0.19894929
157	0x3e191dd6	0.14952788
158	0x3d9c7fb7	0.07641547
159	0x3dfdb2e5	0.12387637
160	0xbc37f0e0	-0.011226863
161	0x3d022678	0.031774968
162	0xbe76e4ac	-0.24110669
163	0xbda1d664	-0.0790222
164	0x3dac107c	0.08401582
165	0xbc37e100	-0.011223078
166	0x3d4926b8	0.04910919
167	0x3d8dae30	0.06917989
168	0xbe540a78	-0.20707119
169	0xbde4367a	-0.11143203
170	0xbd8f1d7d	-0.06988046
171	0x3e18d597	0.14925228
172	0x3db7b9b7	0.08970969
173	0x3e7ec1aa	0.24878564
174	0xbe053af5	-0.13010772
175	0xbe67f264	-0.22651058
176	0xbe0639ec	-0.13108033
177	0x3d7422f0	0.05960363
178	0x3d4365c0	0.04770446
179	0xbdfa17ec	-0.12211594
180	0xbdbb0d84	-0.09133437
181	0x3d7e4180	0.062074184
182	0x3dea6da4	0.114466935
183	0x3b0ff000	0.002196312
184	0x3db9b5ab	0.090678535
185	0xbe2f472a	-0.1711699
186	0x3bfaf56d	0.0076586516
187	0xbd59a49d	-0.053135503
188	0x3cc81b8f	0.024427203
189	0x3d039290	0.032122195
190	0xbe0812dd	-0.13288446
191	0xbb90c419	-0.004417908
192	0xbb409800	-0.0029387474
193	0x3e482a3c	0.19547361
194	0x3e490ecc	0.19634551
195	0xbd990e3c	-0.07473418
196	0x3e09ba76	0.13450035
197	0x3d62d128	0.05537525
198	0xbe6d20d8	-0.2315706
199	0x3d4a4470	0.049381673
200	0xbd1bc104	-0.03802587
201	0x3d7932e6	0.060839556
202	0x3e522f41	0.20525838
203	0x3c75fbc3	0.015013638
204	0xbe7273bb	-0.2367696
205	0xbe75e95c	-0.24014801
206	0xbd13b34c	-0.036059663
207	0xbe64e7ce	-0.22354051
208	0xbe0e36fc	-0.13888162
209	0xbdb52378	-0.08844656
210	0xbdceba6c	-0.10094151
211	0x3ce2f6a0	0.02770549
212	0x3e784488	0.24244893
213	0x3e32da96	0.17466196
214	0xbde51004	-0.11184695
215	0x3c8caee0	0.01717323
216	0xbe5d039e	-0.21583411
217	0xbd6501b2	-0.05590982
218	0x3e00ec8e	0.12590238
219	0x3e5fb1c6	0.21845159
220	0xbcbe26ab	-0.023211798
221	0xbe6bbe02	-0.23021701
222	0xbda5d6f7	-0.08097642
223	0x3e241af5	0.16025908
224	0x3d573758	0.052543014
225	0x3e50225a	0.20325604
226	0x3d1e71e0	0.03868282
227	0xbe0ecef6	-0.13946137
228	0x3da6f814	0.08152786
229	0xbe19a10a	-0.15002838
230	0x3dd4a230	0.10382497
231	0xbe28f6e8	-0.16500437
232	0xbe5b7507	-0.21431361
233	0x3e5b4dbf	0.21416377
234	0x3d9da450	0.07697356
235	0xbe031407	-0.12800609
236	0x3e4265bb	0.1898412
237	0x3c1d1380	0.009587169
238	0xbe37eec1	-0.17962171
239	0xbe6efe2d	-0.23339148
240	0x3bc446c0	0.0059898794
241	0xbe6649a8	-0.22489035
242	0xbe103942	-0.14084342
243	0xbe57c428	-0.21070921
244	0xbd606d50	-0.05479175
245	0xbe69f5a8	-0.22847617
246	0xbd758cd0	-0.059948742
247	0x3dfd3e60	0.12365413
248	0x3e79770a	0.24361816
249	0xbe5ee1e8	-0.21765864
250	0xbc7e9b75	-0.0155399935
251	0xbe68ba50	-0.22727323
252	0xbd43cf2a	-0.04780499
253	0xbe3542c6	-0.17701253
254	0xbe37c5ba	-0.1794652
255	0x3df923ec	0.12165055

mlp.2.bias f4 [16]
0	0xbe3f4229	-0.18677582
1	0x3d9fbe35	0.07799951
2	0x3e5ad4af	0.21370195
3	0xbc1e00b1	-0.0096437195
4	0xbdc694e0	-0.096963644
5	0xbce79f5c	-0.02827423
6	0x3e2319eb	0.15927856
7	0xbe26f36a	-0.16303793
8	0x3e20b9f2	0.15695933
9	0xbe3ac5cd	-0.18239518
10	0xbd533d13	-0.051571917
11	0xbd7713de	-0.06032168
12	0xbe1e726e	-0.15473339
13	0x3aa92626	0.0012905046
14	0xbe21648b	-0.1576101
15	0xbe7e852e	-0.24855492

encoder.layers.0.query_embedding.weight f4 [16, 16]
0	0xbdbb531b	-0.091467105
1	0xbe5d598e	-0.21616194
2	0xbdaf5939	-0.0856194
3	0x3e0515ff	0.12996672
4	0xbc9acd36	-0.01889668
5	0xbe3af35a	-0.18256894
6	0x3e3a5923	0.18198065
7	0x3e2894ed	0.1646306
8	0xbe3e8d53	-0.18608598
9	0x3e13bf00	0.1442833
10	0xbe1be51b	-0.15224116
11	0x3e5b1e5e	0.21398303
12	0x3dd29202	0.10281755
13	0xbe26e6e3	-0.16299014
14	0x3e11a400	0.14222717
15	0x3d83d535	0.064371504
16	0x3e136905	0.1439553
17	0x3c70c1cc	0.014694642
18	0x3e37e8f0	0.17959952
19	0xbe7b4be2	-0.24540666
20	0xbd06f091	-0.032944266
21	0x3de6da07	0.11272054
22	0xbe0e7a03	-0.13913731
23	0xbd681acb	-0.056666177
24	0xbe296f77	-0.16546427
25	0xbe5d9712	-0.2163966
26	0x3e3e7eab	0.18603007
27	0xbc11161d	-0.00885537
28	0x3e4ae02c	0.19812077
29	0x3e17881b	0.14798014
30	0x3de830a2	0.11337401
31	0x3dd8ec4f	0.10591947
32	0xbd4f5a4c	-0.050623223
33	0x3e67decf	0.22643588
34	0x3cbb9a9d	0.022900874
35	0xbe4e28da	-0.20132771
36	0xbe64536f	-0.22297452
37	0x3e781ccb	0.24229734
38	0x3de58295	0.11206547
39	0x3e7ea6f8	0.24868381
40	0x3dd6fd56	0.10497539
41	0x3de5fe6b	0.11230167
42	0x3e0b6bc4	0.13615328
43	0xbe7a2d01	-0.2443123
44	0xbda879dc	-0.08226368
45	0xbdb51ec3	-0.08843758
46	0xbe2bfc4a	-0.1679546
47	0xbd02ea1d	-0.03196155
48	0xbe361a3a	-0.17783442
49	0xbc8009c6	-0.01562966
50	0x3d1fc68c	0.03900771
51	0x3e17459a	0.14772645
52	0xbe61c286	-0.22046861
53	0xbd0c3986	-0.034234546
54	0xbe326e09	-0.17424788
55	0xbd921acf	-0.071340196
56	0x3e3fd8d2	0.18735054
57	0xbdf1edba	-0.11812921
58	0x3db8aa68	0.090168774
59	0xbe55d1e0	-0.20880842
60	0x3e6369a7	0.22208272
61	0x3e45be39	0.19310845
62	0x3cbab371	0.022790642
63	0x3e10f55a	0.14156094
64	0x3d9677d2	0.07347073
65	0xbe053b7f	-0.13010977
66	0x3e70f637	0.23531424
67	0x3d91e268	0.07123262
68	0x3d33cb40	0.043895006
69	0x3d1ed3c3	0.03877617
70	0x3cd1bd12	0.025602851
71	0x3e50b736	0.2038239
72	0x3e665255	0.22492345
73	0xbb2bd0b4	-0.0026216926
74	0x3e588180	0.2114315
75	0x3e1cf230	0.15326762
76	0x3d81a867	0.06330948
77	0xbda86b9a	-0.08223648
78	0xbd2f7958	-0.04284033
79	0x3e742749	0.23843111
80	0x3dc09b84	0.09404662
81	0xbd5ab777	-0.053397622
82	0xbdeb7995	-0.11497799
83	0x3e41b575	0.18916877
84	0x3dc33f49	0.09533555
85	0xbe16b968	-0.14719164
86	0x3d7cd8ea	0.061730303
87	0x3e6351be	0.22199151
88	0x3cc0e311	0.023545774
89	0x3d28aa56	0.04117807
90	0xbe1234bb	-0.14277928
91	0xbd226d25	-0.03965487
92	0xbc02dce8	-0.0079872385
93	0x3e0e08a6	0.13870487
94	0x3e6c738a	0.2309095
95	0xbd39a725	-0.045325417
96	0xbe5dcc01	-0.21659853
97	0x3dcd6e8e	0.10030852
98	0xbe2e7a8a	-0.17038932
99	0xbe85146a	-0.25992137
100	0x3e2f7ad9	0.17136706
101	0xbcf98a23	-0.030461377
102	0xbe0b4a77	-0.13602625
103	0xbe6873a1	-0.22700359
104	0xbe7046a3	-0.23464446
105	0x3e326b5b	0.17423765
106	0xbe176d98	-0.147879
107	0xbe82b506	-0.25528735
108	0x3ccb3bf9	0.02480887
109	0x3d10ee6f	0.035383638
110	0xbe39eead	-0.18157454
111	0xbe67a03c	-0.22619718
112	0x3e4504de	0.19240138
113	0xbd2bb663	-0.041921984
114	0xbe6dfce8	-0.23241007
115	0x3da89511	0.08231557
116	0xbe1f9e4c	-0.15587729
117	0x3d82514f	0.06363165
118	0xbda1b66b	-0.078961216
119	0xbe48057e	-0.19533345
120	0x3b9d5e2c	0.004802486
121	0xbd921481	-0.07132817
122	0x3e458530	0.19289088
123	0xbe757dc1	-0.23973753
124	0x3b04fa18	0.002029067
125	0x3e638fb8	0.22222793
126	0xbe78cae0	-0.2429614
127	0x3e2c628f	0.16834472
128	0x3e11a9b5	0.14224894
129	0x3e36e5ac	0.1786105
130	0x3dade9ee	0.08491884
131	0xbcd4e8ac	-0.025989853
132	0x3d1c07ea	0.038093485
133	0xbd7d1918	-0.06179151
134	0xbdcb0a5e	-0.09914087
135	0x3e1e0087	0.15429889
136	0x3e493928	0.1965071
137	0x3e03307d	0.12811466
138	0x3e839821	0.25702003
139	0xbe563637	-0.20919119
140	0xbe0bc5bc	-0.13649648
141	0xbdf0374f	-0.11729299
142	0xbdd24198	-0.10266417
143	0xbe1522eb	-0.14564101
144	0xbdffb832	-0.12486304
145	0xbe03d29d	-0.12873311
146	0x3cd0fcac	0.025511108
147	0x3e14f7ec	0.145477
148	0x3e2ecfc9	0.17071451
149	0xbc1c25b1	-0.009530471
150	0xbc540784	-0.012941245
151	0xbd0045b0	-0.03131646
152	0x3d1aa107	0.037751224
153	0x3e5d5c7b	0.2161731
154	0xbe37b6ba	-0.17940798
155	0x3af4cf4b	0.0018677501
156	0x3d97c8e4	0.07411364
157	0xbe694567	-0.22780381
158	0xbd37703a	-0.044784762
159	0xbd8f0abf	-0.069844715
160	0x3e2cef93	0.16888265
161	0x3e4b1055	0.19830449
162	0x3dbbb239	0.09164853
163	0xbdc95cb4	-0.09832135
164	0xbe6c596a	-0.23080984
165	0xbd46cecc	-0.04853706
166	0xbd586d40	-0.052838564
167	0xbdaeaf54	-0.08529535
168	0xbe60147f	-0.21882819
169	0xbbc6f3b6	-0.006071533
170	0xbe0507cc	-0.12991256
171	0x3e7340be	0.23755166
172	0x3e0a33ff	0.13496397
173	0xbce5353b	-0.027979484
174	0xbd895baf	-0.067069404
175	0x3cfe1ab8	0.0310186
176	0x3db8d984	0.09025863
177	0x3e00a4f2	0.12562922
178	0x3e75f313	0.24018507
179	0xbd3a4462	-0.04547537
180	0x3ca92c28	0.020650938
181	0x3d5e01bb	0.05420087
182	0xbdc5a022	-0.096496835
183	0xbae543a4	-0.0017491472
184	0x3e568407	0.20948802
185	0xbde38d05	-0.11110882
186	0x3e80e0f3	0.25171623
187	0x3e26393b	0.16232769
188	0x3c34d59d	0.0110372575
189	0xbe6c0082	-0.23047069
190	0xbccf7398	-0.025323674
191	0x3cb8a34b	0.022538802
192	0x3df51363	0.11966588
193	0x3d6381af	0.055543598
194	0xbe265dd9	-0.16246738
195	0x3e7da7ce	0.24771044
196	0xba521f32	-0.0008015513
197	0xbdf263bf	-0.11835431
198	0x3d331583	0.043721687
199	0xbd6078a6	-0.05480256
200	0xbb52c6f6	-0.0032162047
201	0xbdc7f268	-0.09763032
202	0xbdb98ac2	-0.09059669
203	0xbbac50ef	-0.0052586715
204	0xbe1c2454	-0.15248233
205	0xbdfcf157	-0.123507194
206	0x3de17177	0.1100797
207	0x3e4573ea	0.19282499
208	0xbe3dfe69	-0.18554081
209	0x3dacf790	0.08445656
210	0xbdb7f9fd	-0.08983228
211	0xbdb4d770	-0.08830154
212	0xbe4c1cfa	-0.19932929
213	0xbd8efe61	-0.06982113
214	0x3e1e1823	0.15438895
215	0x3e2701d1	0.16309287
216	0x3e4ac990	0.19803452
217	0xbde540fa	-0.11194034
218	0x3c038196	0.008026501
219	0x3d0099f6	0.03139683
220	0xbe247a5a	-0.16062298
221	0x3d1abee9	0.037779722
222	0xbdb32ea8	-0.08749133
223	0x3d1eee61	0.038801555
224	0xbe479024	-0.19488579
225	0xbe4b8934	-0.19876558
226	0x3e6fe653	0.23427705
227	0xbe5ed34a	-0.21760288
228	0x3d961556	0.07328288
229	0xbe2bba04	-0.16770178
230	0x3da1beb8	0.07897705
231	0xbd836aa2	-0.06416823
232	0xbe156005	-0.1458741
233	0xbc49a9d9	-0.012308561
234	0xbe327504	-0.1742745
235	0x3ce63166	0.028099727
236	0x3e2f4902	0.17117694
237	0x3e18f47d	0.14937015
238	0x3e18805d	0.14892717
239	0xbe734822	-0.23757985
240	0x3e7bce02	0.24590304
241	0x3e3d1663	0.18465571
242	0xbde76577	-0.1129865
243	0x3dd2575b	0.10270568
244	0xbe102bf9	-0.14079274
245	0xbd44e835	-0.048073012
246	0xbe6bfbb5	-0.23045237
247	0xbd31b24f	-0.04338294
248	0xbe802c13	-0.25033626
249	0xbe4bcb98	-0.19901884
250	0xbe6eff11	-0.23339488
251	0x3e4482f1	0.19190575
252	0xbd958558	-0.07300824
253	0x3e2a73c0	0.16645718
254	0xbe12c307	-0.1433221
255	0xbe218536	-0.15773472

encoder.layers.0.query_embedding.bias f4 [16]
0	0xbd8dfc69	-0.06932909
1	0xbc137aa9	-0.009001412
2	0xbd8d4fda	-0.06899996
3	0x3e544d02	0.20732501
4	0x3e4d0722	0.20022252
5	0xbe62d234	-0.22150499
6	0xbe3dab20	-0.1852231
7	0xbe073bdd	-0.1320643
8	0x3e096b44	0.13419825
9	0xbe35213b	-0.17688458
10	0x3e1ff19f	0.15619515
11	0xbd6597c6	-0.056052946
12	0xbdd5d404	-0.104408294
13	0xbe733c77	-0.23753534
14	0xbe310e26	-0.17290553
15	0xbe2d645c	-0.16932815

encoder.layers.0.key_embedding.weight f4 [16, 16]
0	0xbe15c7d2	-0.14627007
1	0x3e12531a	0.14289513
2	0xbe06f8af	-0.13180803
3	0xbcc8b47a	-0.02450012
4	0x3e0608b8	0.13089263
5	0xbe1745f6	-0.14772782
6	0xbddf25c5	-0.10895876
7	0x3de313db	0.110877715
8	0x3e49e1a8	0.19714987
9	0x3e10717e	0.14105794
10	0x3e617a33	0.22019272
11	0x3e08b0fc	0.13348764
12	0x3d8b42d3	0.06799855
13	0x3e2f51a8	0.17120993
14	0xbe68b5f7	-0.22725664
15	0xbd947177	-0.07248204
16	0xbe1c8dcc	-0.15288466
17	0x3e0c19fe	0.1368179
18	0x3e19bb58	0.15012872
19	0x3e6f4481	0.23365976
20	0xbe3cb895	-0.18429787
21	0x3d62f532	0.055409618
22	0xbd130b2b	-0.035899322
23	0x3d4a2277	0.049349274
24	0x3d8adac9	0.06780011
25	0x3ddb2df9	0.10702128
26	0x3e29bfc3	0.16577058
27	0x3db2578e	0.08708106
28	0x3d534ef1	0.051588956
29	0x3e06aeea	0.13152662
30	0x3d59f551	0.053212468
31	0xbe205d71	-0.15660645
32	0xbe47f8b6	-0.1952847
33	0xbe632765	-0.22182997
34	0xbe2b75ec	-0.16744202
35	0xbd749585	-0.059712905
36	0xbe1e10a9	-0.15436043
37	0x3c9dcac7	0.01926173
38	0xbd721cbc	-0.059109434
39	0x3e717052	0.23578003
40	0xbe35fede	-0.17773005
41	0xbe4d1c64	-0.20030361
42	0x3c05e109	0.008171328
43	0xbe2d0492	-0.16896275
44	0xbe2861a7	-0.16443501
45	0xbe369106	-0.1782876
46	0x3e6566bf	0.22402476
47	0x3e5ae6ed	0.21377154
48	0x3d927258	0.071507156
49	0xbdc1c785	-0.094618835
50	0x3e3d7f1f	0.18505524
51	0x3d872643	0.06599095
52	0x3d8d797c	0.06907937
53	0x3e0957c2	0.13412383
54	0xbe6e7bc7	-0.23289405
55	0x3e6a201f	0.22863816
56	0xbe147117	-0.14496265
57	0xbe59694b	-0.21231572
58	0x3e3d47d6	0.18484434
59	0x3e543b97	0.20725857
60	0x3dca56d8	0.098798454
61	0xbd887d3f	-0.06664514
62	0x3d3f2212	0.04666335
63	0x3e09ab75	0.13444312
64	0xbe22f920	-0.15915346
65	0xbe71f885	-0.23629959
66	0x3e681826	0.22665462
67	0x3d6c1d62	0.05764521
68	0xbd8bc538	-0.06824726
69	0xbc52a4a3	-0.012856635
70	0x3df064dc	0.117379874
71	0x3e249b50	0.16074872
72	0xbd96e445	-0.07367758
73	0x3e0e53c7	0.13899146
74	0x3dad475d	0.08460877
75	0x3d1d960d	0.038473178
76	0xbd70db37	-0.05880281
77	0x3e02347d	0.12715335
78	0x3e51f379	0.20503034
79	0x3b9f63d4	0.0048641954
80	0x3e5e2fb3	0.21697883
81	0xbdadbdf5	-0.08483497
82	0x3e49f215	0.19721253
83	0xbd8073af	-0.06272065
84	0x3de326c3	0.110913776
85	0xbe3728a0	-0.17886591
86	0xbe174b2d	-0.14774771
87	0x3e216d3b	0.15764324
88	0x3b983c11	0.0046458323
89	0xbe3ad1ba	-0.18244067
90	0xbe16339a	-0.14668122
91	0xbd5888bb	-0.05286477
92	0x3db549ae	0.08851944
93	0x3e427e7e	0.18993565
94	0x3dc47861	0.09593273
95	0x3db8b0c5	0.09018091
96	0xbdc6df92	-0.097106114
97	0x3e25f5d0	0.16207051
98	0x3e5069a7	0.20352803
99	0xba20f95f	-0.0006140675
100	0x3e3e5280	0.18586159
101	0x3e6cc048	0.23120224
102	0xbcee02b0	-0.029054016
103	0x3caf4e29	0.021399574
104	0xbe36923e	-0.17829224
105	0xbe4f7561	-0.2025962
106	0xbdbc9d8a	-0.09209736
107	0x3e1c7c40	0.15281773
108	0x3e1342da	0.1438097
109	0x3e05c970	0.13065124
110	0x3dc3ad25	0.09554509
111	0x3c082076	0.008308521
112	0x3d09fc64	0.033687964
113	0x3ce075ae	0.027399864
114	0xbd842a98	-0.064534366
115	0xbda1ef1b	-0.07906934
116	0x3e1f2c66	0.1554428
117	0xbcf4a14d	-0.02986207
118	0xbe0c9656	-0.13729224
119	0x3d3826a0	0.04495871
120	0xbd32e205	-0.04367258
121	0x3daea7b2	0.08528079
122	0xbdab7464	-0.08371809
123	0x3c8bcc3f	0.017065166
124	0x3e0ee475	0.13954337
125	0xbdea59b7	-0.11442893
126	0x3e413651	0.18868376
127	0xbe544fae	-0.2073352
128	0xbb949b10	-0.0045350865
129	0x3cf564a4	0.029955216
130	0x3d37d4d4	0.044880703
131	0x3e31e3cd	0.17372055
132	0x3dbfee46	0.09371619
133	0x3e68a5f4	0.22719556
134	0x3dd52cf4	0.10408965
135	0x3ce1ebff	0.027578352
136	0x3bc3a830	0.0059709772
137	0xbcf2e49a	-0.029650021
138	0xbe3ab8ae	-0.18234512
139	0xbdcd7c42	-0.10033466
140	0x3e1c236b	0.15247886
141	0xbc9f8d01	-0.019476416
142	0xbd3e74bf	-0.046498057
143	0x3deff9ea	0.11717589
144	0xbcd051c1	-0.025429608
145	0x3e0f8f2e	0.14019462
146	0xbe24e30d	-0.16102238
147	0xbd7772ca	-0.060412206
148	0x3e02b5eb	0.12764709
149	0x3e45fa18	0.19333684
150	0xbe73eb0f	-0.23820136
151	0x3dd5fbd5	0.10448424
152	0x3daa1bb1	0.08306063
153	0xbdff08d8	-0.12452859
154	0x3e7ea446	0.24867353
155	0x3e5812e5	0.21100958
156	0x3e1a9296	0.1509498
157	0xbe339c5a	-0.17540112
158	0xbe36e42c	-0.17860478
159	0xbdd22a56	-0.10261981
160	0xbdc3ae2f	-0.09554707
161	0x3dea987a	0.11454864
162	0xbdf21287	-0.1181994
163	0xbb374098	-0.0027962085
164	0xbe71d350	-0.23615766
165	0x3e62a445	0.22132976
166	0x3e3bd99c	0.1834473
167	0x3e5772cd	0.21039887
168	0x3bce23a4	0.00629087
169	0xbddeaec5	-0.108731784
170	0xbd0e8f68	-0.03480473
171	0xbcbc1007	-0.022956861
172	0x3d74ce2f	0.059766944
173	0xbe6abbcd	-0.22923203
174	0x3e2dbbd4	0.16966182
175	0xbe44761f	-0.19185685
176	0x3e790518	0.2431835
177	0xbe0f4990	-0.13992906
178	0xbe55ef68	-0.20892107
179	0xbd17ea66	-0.037088774
180	0x3d02cbfc	0.031932816
181	0xbdf26f8b	-0.118376814
182	0x3e531332	0.20612791
183	0x3e79fbdc	0.24412483
184	0x3e7ff016	0.2499393
185	0xbe5ea81f	-0.2174382
186	0xbe3b0369	-0.1826302
187	0x3d47778e	0.048698
188	0xbc16e0ce	-0.009208871
189	0xbe3ceb5e	-0.1844916
190	0x3e5c7527	0.21529065
191	0x3e646485	0.2230397
192	0x3e38402d	0.17993231
193	0xbe286b4a	-0.16447178
194	0xbded655f	-0.115916006
195	0xbe61c91d	-0.22049375
196	0x3e64da75	0.2234896
197	0x3e318567	0.17336045
198	0x3e2fb2a2	0.17157987
199	0x3e35ab85	0.17741211
200	0x3e532632	0.20620039
201	0xbe2d1376	-0.16901955
202	0xbde760e1	-0.11297775
203	0xbe7d3a06	-0.24729165
204	0x3e0433e7	0.12910424
205	0x3da9712d	0.0827354
206	0x3e1d12ed	0.15339251
207	0x3e621e50	0.22081876
208	0x3e773ab7	0.24143492
209	0x3e2b35d2	0.1671975
210	0xbd937971	-0.072008975
211	0x3dae27bc	0.085036725
212	0x3c5cec40	0.013484061
213	0xbce7f483	-0.028314834
214	0x3e7449ee	0.23856327
215	0x3e3019cb	0.17197339
216	0x3e1e1e16	0.15441164
217	0xbe64612e	-0.22302696
218	0x3dd05cab	0.10173925
219	0x3dd56503	0.10419657
220	0x3de7d2e9	0.11319525
221	0xbd24dac5	-0.040247697
222	0xbe4cb5fc	-0.19991297
223	0x3e5ebd61	0.2175193
224	0xbdfd6f21	-0.12374712
225	0xbc9efb44	-0.019406922
226	0x3e466b01	0.19376756
227	0x3e15f6a3	0.14644866
228	0xbe11e981	-0.14249231
229	0x3dc892d6	0.09793632
230	0x3e672e0d	0.2257616
231	0x3e177e07	0.1479417
232	0x3e3f1976	0.18662056
233	0x3e08dff3	0.1336668
234	0x3e2565c5	0.16152103
235	0x3e385909	0.18002714
236	0x3e0e71fa	0.13910666
237	0x3d5024f4	0.05081649
238	0x3e39ea09	0.18155684
239	0xbe3fa3bf	-0.18714808
240	0x3dcc0c01	0.09963227
241	0xbdf74b79	-0.12074942
242	0xbdb8d1f1	-0.09024418
243	0x3e3587a2	0.17727521
244	0xbe24c1cb	-0.16089551
245	0xbd937b9c	-0.07201311
246	0xbdf025a5	-0.1172593
247	0xbdf0dad3	-0.117604874
248	0x3e20ca17	0.15702091
249	0x3e3f99a8	0.18710959
250	0x3de0b853	0.10972657
251	0x3cdda02b	0.027053913
252	0xbd68cb7e	-0.05683469
253	0xbe6c6500	-0.23085403
254	0xbe26a248	-0.16272843
255	0x3d85a03c	0.06524703

encoder.layers.0.key_embedding.bias f4 [16]
0	0xbd2a47c8	-0.041572362
1	0xbd1a9f80	-0.037749767
2	0x3debe322	0.115179315
3	0xbe58c070	-0.21167159
4	0xbe23ced1	-0.15996863
5	0x3dff5411	0.12467206
6	0xbdbb95d4	-0.09159437
7	0xbda677af	-0.081282966
8	0x3d5c0b22	0.053721555
9	0xbc5af4a8	-0.013363995
10	0xbe1dd6ad	-0.15413924
11	0x3e2afe5b	0.16698591
12	0xbe0928df	-0.13394497
13	0x3e24d735	0.1609772
14	0xbbfa3a96	-0.0076363785
15	0xbe14d189	-0.14533056

encoder.layers.0.value_embedding.weight f4 [16, 16]
0	0x3d84c616	0.064830944
1	0x3d0ccf23	0.03437723
2	0x3d250a31	0.040292922
3	0xbe6f381f	-0.23361252
4	0x3e3f05da	0.18654576
5	0xbdab3390	-0.08359444
6	0xbde83022	-0.113373056
7	0xbd8216b0	-0.063519835
8	0x3c19af10	0.009380117
9	0xbe41b25a	-0.18915692
10	0x3cc149dc	0.02359479
11	0xbe58e91d	-0.21182676
12	0xbda3c920	-0.07997346
13	0x3e2a1efb	0.1661338
14	0x3d7d73ac	0.06187789
15	0xbe7790b3	-0.24176292
16	0xbdfad69c	-0.12247965
17	0xbdfd9a68	-0.12382966
18	0xbe4d46f4	-0.20046598
19	0xbe65dd55	-0.22447713
20	0xbe666e4e	-0.22503015
21	0x3e47339d	0.19453283
22	0x3e529716	0.20565447
23	0xbe76baee	-0.24094746
24	0xbe421ca0	-0.18956232
25	0x3e19c05b	0.15014784
26	0x3e4df6f7	0.20113741
27	0x3e3d7e33	0.18505172
28	0x3db83e9e	0.08996318
29	0xbd8d2363	-0.06891515
30	0x3db8a2b8	0.09015411
31	0x3d69bca5	0.05706467
32	0xbe3ce101	-0.18445207
33	0x3e17bbca	0.1481773
34	0xbdde0696	-0.108411
35	0x3cdf06cb	0.027224919
36	0xbde05aef	-0.10954844
37	0xbcbd1bd3	-0.023084557
38	0x3e8130a3	0.2523242
39	0xbe6fe018	-0.23425329
40	0x3e705fc3	0.2347403
41	0x3d467c2a	0.048458256
42	0xbd5a5961	-0.053307895
43	0x3b2ffe21	0.0026854353
44	0x3e35466d	0.17702647
45	0xbe1741c0	-0.14771175
46	0x3e74c59e	0.2390351
47	0x3cd59b29	0.026074963
48	0x3dced590	0.100993276
49	0x3e74070c	0.23830813
50	0xbc30c86e	-0.010789974
51	0x3ceb60fb	0.028732767
52	0x3e1f1708	0.1553613
53	0xbe23096d	-0.15921564
54	0xbe3bd94f	-0.18344615
55	0xbd2edbf3	-0.04269023
56	0x3e2578cb	0.1615936
57	0x3e33dfd5	0.17565854
58	0xbdb768ae	-0.08955513
59	0x3d9210c2	0.071321025
60	0x3e487b03	0.19578175
61	0xbe709cfc	-0.23497385
62	0x3e05705a	0.1303114
63	0xbe510154	-0.20410663
64	0x3d9e486c	0.07728657
65	0x3bf09c41	0.0073428457
66	0x3e73e8ad	0.23819228
67	0x3cc057ef	0.02347943
68	0x3e365412	0.17805508
69	0xbe0332c5	-0.12812336
70	0x3e115f17	0.1419643
71	0xbe113aac	-0.14182538
72	0xbdf32bfb	-0.11873623
73	0x3da96ddb	0.082729064
74	0xbd08ec64	-0.033428565
75	0xbe38ae0b	-0.18035142
76	0x3e39bca7	0.18138371
77	0x3e575cc1	0.21031477
78	0xbdf76025	-0.12078885
79	0x3de44614	0.11146179
80	0xbc4c31b6	-0.012463024
81	0x3e1993e4	0.14997822
82	0xbe6ec6a4	-0.23317963
83	0x3d2965f1	0.041356985
84	0x3e23d7c6	0.1600028
85	0xbe2d74cd	-0.16939087
86	0x3e281c0b	0.16416948
87	0x3e7a110e	0.24420568
88	0x3dbbbc12	0.09166731
89	0xbe7e81d8	-0.24854219
90	0x3dc4b8fb	0.09605595
91	0xbd72bb1e	-0.05926048
92	0xbe041dc8	-0.12901986
93	0xbdf77a4a	-0.12083872
94	0xbd364095	-0.044495184
95	0xbc8d3e92	-0.01724175
96	0xbe37cc0e	-0.17948934
97	0xbe550b7f	-0.20805167
98	0xbded329f	-0.11581921
99	0xbe51aa6f	-0.20475172
100	0xbda5e869	-0.08100969
101	0x3e634c6d	0.22197123
102	0xbe81ed18	-0.253762
103	0xbd2e22f4	-0.042513803
104	0xbdda6c33	-0.106651686
105	0x3dcd3e0d	0.10021601
106	0x3e289eef	0.16466878
107	0x3e501269	0.20319523
108	0x3e29dc95	0.16588052
109	0xbe20fb00	-0.15720749
110	0xbdd7c46f	-0.105355136
111	0xbdd381ec	-0.10327515
112	0x3c71205c	0.014717188
113	0x3df0016f	0.117190234
114	0x3e736457	0.23768745
115	0x3e3d7d0b	0.18504731
116	0xbe7ac917	-0.24490772
117	0x3e0c61b1	0.13709141
118	0xbe5f5cd2	-0.21812752
119	0x3d37cbe7	0.04487219
120	0xbdcd6775	-0.100294985
121	0xbd9a718e	-0.0754119
122	0xbd31b6ac	-0.0433871
123	0xbe56d974	-0.2098139
124	0x3e305afc	0.17222208
125	0x3dd95c12	0.10613264
126	0xbe46d860	-0.19418478
127	0x3e41c558	0.18922937
128	0x3a82d738	0.0009982353
129	0x3e47c9f9	0.1951064
130	0xbd9149ce	-0.07094155
131	0x3d2f23df	0.04275882
132	0xbe033e59	-0.12816752
133	0xbe7f8eb7	-0.24956785
134	0x3e793c8a	0.243395
135	0x3e45bb90	0.1930983
136	0x3dbc6074	0.091980845
137	0xbe6a8e08	-0.22905743
138	0x3d2a01d4	0.04150565
139	0xbe1f84f5	-0.15578063
140	0xbe6cd265	-0.23127134
141	0x3cc50650	0.024050862
142	0x3dc6118a	0.09671314
143	0xbe4c8ab3	-0.19974785
144	0x3e34a450	0.17640805
145	0x3d9858e7	0.07438832
146	0xbe0edac1	-0.13950635
147	0xbe6c4226	-0.23072109
148	0xbdf22977	-0.11824315
149	0xbcde1c99	-0.027113246
150	0xbd6627cc	-0.056190297
151	0xbe4bd328	-0.19904768
152	0x3e3c3b05	0.18381889
153	0x3e52e0da	0.20593587
154	0x3e40641c	0.18788189
155	0xbbc4ed82	-0.0060097585
156	0xbc69b032	-0.0142632
157	0xbe62ab9e	-0.2213578
158	0x3e384e41	0.17998601
159	0x3e69ad6b	0.2282006
160	0xbe53b6e7	-0.2067524
161	0xbe568092	-0.20947483
162	0xbe6ec2f6	-0.23316559
163	0x3d501440	0.050800562
164	0xbe0a107a	-0.13482848
165	0x3d2b9fd4	0.04190047
166	0xbd8b4c3a	-0.068016484
167	0x3cd2d56f	0.025736539
168	0x3d58c3d6	0.05292114
169	0xbc1cbb11	-0.0095660845
170	0x3e010377	0.12598978
171	0x3d8c6b12	0.068563595
172	0xbe7c533e	-0.2464113
173	0x3e71da29	0.23618378
174	0xbe4fda2d	-0.20298071
175	0xbdaa823b	-0.08325621
176	0xbdae0c79	-0.08498473
177	0xbe0d6d70	-0.13811278
178	0xbe4c2fb8	-0.19940078
179	0x3dfcf56d	0.12351499
180	0x3da2402c	0.07922396
181	0x3db93b0b	0.09044465
182	0xbe031faf	-0.12805055
183	0xbc407b74	-0.0117481835
184	0x3e026abc	0.12736028
185	0xbda53737	-0.08067172
186	0xbe4558b6	-0.19272122
187	0xbd88242a	-0.06647523
188	0xbd750df4	-0.05982776
189	0xbe6f19f9	-0.23349752
190	0xbdfc8248	-0.12329537
191	0xbd23304d	-0.039840985
192	0xbc8f73d4	-0.017511286
193	0xbd0ba129	-0.03408924
194	0xbd4f8ce9	-0.05067149
195	0xbe81cfd3	-0.2535387
196	0xbde8deeb	-0.11370643
197	0xbe0badde	-0.13640544
198	0x3d21c384	0.0394931
199	0xbdafb198	-0.08578795
200	0xbe136768	-0.14394915
201	0xbe743430	-0.23848033
202	0xbdbaadde	-0.09115194
203	0xbe5fb8e4	-0.21847874
204	0xbe1f066e	-0.15529796
205	0x3e4d0661	0.20021965
206	0x3d8ecd24	0.06972721
207	0x3d7c53ee	0.06160348
208	0x3d22999e	0.039697282
209	0xbe3bd123	-0.18341498
210	0x3adb4edf	0.001673188
211	0xbc04e602	-0.008111479
212	0x3e6f3fb1	0.2336414
213	0xbdc2f3c9	-0.095191546
214	0xbe20aba0	-0.1569047
215	0xbcb65d36	-0.022261243
216	0x3e468f02	0.1939049
217	0x3da39f7d	0.07989404
218	0x3b863f1b	0.004096878
219	0xbdff178f	-0.12455665
220	0x3bec5696	0.0072124703
221	0x3e12c865	0.14334257
222	0x3dffbf14	0.12487617
223	0x3e1c9251	0.1529019
224	0xbe79accb	-0.24382322
225	0x3e5719c1	0.21005918
226	0xbe709b42	-0.23496726
227	0xbd6e47a5	-0.058173794
228	0x3d9d5c54	0.07683626
229	0xbe6be067	-0.23034821
230	0xbe688d3a	-0.22710124
231	0xbe305c07	-0.17222606
232	0x3d8da647	0.069164805
233	0xbe568cbb	-0.20952122
234	0xbe6a0e31	-0.22856976
235	0x3d11ee72	0.03562779
236	0x3e6c0b78	0.2305125
237	0x3dfae612	0.12250914
238	0xbdfd99d7	-0.12382858
239	0x3d2b2f12	0.041792937
240	0x3e5c8208	0.21533978
241	0x3c1f2cbe	0.009715257
242	0xbd76db4e	-0.06026774
243	0x3e16501b	0.14678995
244	0xbddb2109	-0.1069966
245	0xbe176a37	-0.14786611
246	0xbc26d439	-0.010182434
247	0xbe1b725e	-0.15180346
248	0x3db7867e	0.08961199
249	0xbe738422	-0.23780873
250	0xbe7369bd	-0.23770805
251	0x3e12c470	0.14332747
252	0xbe72710b	-0.23675935
253	0xbe768f73	-0.24078159
254	0x3e2065cd	0.15663834
255	0xbdaaed60	-0.08346057

encoder.layers.0.value_embedding.bias f4 [16]
0	0x3df87a75	0.12132732
1	0xbcf5a743	-0.029986983
2	0x3c5514df	0.013005464
3	0xbdab7620	-0.0837214
4	0x3e016924	0.12637764
5	0x3db05a3f	0.08610963
6	0x3d59df52	0.05319149
7	0xbdd14a52	-0.102192536
8	0x3cb39a1a	0.021924067
9	0x3e359cc2	0.1773558
10	0x3e23c3b1	0.15992619
11	0x3d9a0c0d	0.0752183
12	0x3da1645b	0.078804694
13	0xbcdec6fd	-0.027194494
14	0x3e2be332	0.16785887
15	0xbd5f1db4	-0.054471686

encoder.layers.0.norm_attn.weight f4 [16]
0	0x3f805440	1.0025711
1	0x3f80b640	1.0055618
2	0x3f7fb67f	0.9988784
3	0x3f808088	1.0039225
4	0x3f7eb448	0.9949384
5	0x3f81e146	1.0146873
6	0x3f81410c	1.0097976
7	0x3f80ac81	1.0052644
8	0x3f801501	1.000641
9	0x3f7c4deb	0.98556393
10	0x3f7f9b17	0.99846023
11	0x3f812710	1.0090046
12	0x3f80fee9	1.0077792
13	0x3f7ecde9	0.99532944
14	0x3f7cd18b	0.9875724
15	0x3f7ac33e	0.97954166

encoder.layers.0.norm_attn.bias f4 [16]
0	0x3c3c4206	0.011490351
1	0xbc24c9cb	-0.010057877
2	0x3c03feb0	0.008056328
3	0x3c17a701	0.009256125
4	0xbbe5cf42	-0.0070132324
5	0x3ba3fdf6	0.0050046397
6	0xbba3d96d	-0.0050002844
7	0xba6d5625	-0.0009053669
8	0x3bb097ca	0.0053891884
9	0xbc018e6b	-0.00790749
10	0xbb8bb3ef	-0.004263393
11	0x3b092d5e	0.0020931582
12	0x3c0886ec	0.008332949
13	0xbbcf75ad	-0.0063311667
14	0x3c530246	0.01287896
15	0x3c12a03e	0.0089493375

encoder.layers.0.norm_attn.running_mean f4 [16]
0	0xc19e43f7	-19.783186
1	0x419906b2	19.12827
2	0xc126e0ba	-10.429865
3	0x41df789c	27.933891
4	0x4139c7fa	11.611322
5	0xbf93bfc5	-1.1542898
6	0xc03df2de	-2.9679484
7	0xc14ae0c8	-12.679878
8	0xc0c391fa	-6.1115694
9	0x4074282e	3.8149524
10	0xc10d22e0	-8.821014
11	0x41007db2	8.030687
12	0xc13675e3	-11.403781
13	0xc10a436a	-8.6414585
14	0x40ab7edc	5.359236
15	0x40f5b51c	7.678358

encoder.layers.0.norm_attn.running_var f4 [16]
0	0x40af755a	5.483075
1	0x40f76e2d	7.732199
2	0x4106107f	8.379027
3	0x40cdbbe9	6.4291883
4	0x4017f4ea	2.3743234
5	0x4186078f	16.75369
6	0x41480dc7	12.503364
7	0x4026abaf	2.6042287
8	0x40b95bb0	5.7924423
9	0x40980fce	4.7519293
10	0x3f9a09f3	1.2034286
11	0x40d0d545	6.526034
12	0x402f8bd7	2.7429101
13	0x40bc3045	5.8808923
14	0x41c5febb	24.74938
15	0x40e6a4c1	7.2076116

encoder.layers.0.norm_ffn.weight f4 [16]
0	0x3f7e4860	0.99329185
1	0x3f7e3d66	0.99312437
2	0x3f7eea31	0.995761
3	0x3f81006c	1.0078254
4	0x3f820fdf	1.0161093
5	0x3f7faf11	0.99876505
6	0x3f7f1a8b	0.99649876
7	0x3f7f61d9	0.9975868
8	0x3f7e6777	0.99376625
9	0x3f8104b8	1.0079565
10	0x3f7fdf49	0.9995008
11	0x3f7fda37	0.99942344
12	0x3f80d136	1.0063846
13	0x3f801404	1.0006108
14	0x3f7ec1eb	0.99514645
15	0x3f7ee8df	0.99574083

encoder.layers.0.norm_ffn.bias f4 [16]
0	0xbc390009	-0.011291512
1	0x3b974c68	0.0046172626
2	0x3c389250	0.011265352
3	0xbbbc983b	-0.005755452
4	0xbbc25a1e	-0.005931153
5	0xbb812808	-0.0039415397
6	0x3aa5ea33	0.0012658298
7	0x3ad529a5	0.0016263021
8	0xb9916504	-0.00027731818
9	0x3b9fc7a2	0.004876093
10	0x3c33b329	0.010968008
11	0xbc326898	-0.010889195
12	0xbbcf7571	-0.006331139
13	0x3b3559b4	0.0027671875
14	0x3c62fe73	0.013854611
15	0xbc36ba13	-0.011152762

encoder.layers.0.norm_ffn.running_mean f4 [16]
0	0x3d30228a	0.04300169
1	0xbb2ad53b	-0.0026067037
2	0x3e063c57	0.13108955
3	0x3e2e72dd	0.17036004
4	0xbc35f4af	-0.0111057
5	0x3dcd5dba	0.100276425
6	0x3e2a5ddd	0.16637369
7	0x3d839b03	0.064260505
8	0xbdcbbbd8	-0.09947938
9	0x3e94a3b4	0.29031146
10	0xbd8cde88	-0.06878382
11	0xbe90785e	-0.28216833
12	0xbe4b9759	-0.19881953
13	0x3e473588	0.19454014
14	0x3de20f7f	0.11038112
15	0x3d5001ad	0.05078285

encoder.layers.0.norm_ffn.running_var f4 [16]
0	0x3f79c08a	0.97559416
1	0x3f7917b2	0.9730178
2	0x3f725bfc	0.94671607
3	0x3f8bdff4	1.092772
4	0x3f840194	1.0312982
5	0x3f914058	1.1347761
6	0x3f7f37e4	0.9969466
7	0x3f7ce066	0.98779905
8	0x3f7b1909	0.98085076
9	0x3f6c582a	0.9232203
10	0x3f81ba13	1.013491
11	0x3f8bb35b	1.091411
12	0x3f9241a5	1.1426283
13	0x3f904595	1.1271235
14	0x3f641978	0.8910136
15	0x3f63bd3d	0.8896063

encoder.layers.0.ffn.0.weight f4 [64, 16]
0	0x3cd3d963	0.025860494
1	0xbe083fa2	-0.13305524
2	0x3e71202a	0.23547426
3	0xbd619aab	-0.055079143
4	0x3d1a577b	0.037681084
5	0x3dc5ed20	0.09664369
6	0x3e79d623	0.24398093
7	0x3dc424d7	0.09577339
8	0xbdee3413	-0.11631026
9	0xbd4ad198	-0.04951629
10	0x3e0384b8	0.12843597
11	0x3decb10d	0.11557207
12	0x3d9d0ce3	0.076684736
13	0x3dc1d6a2	0.09464766
14	0x3e30bea8	0.1726023
15	0x3e17ec33	0.14836197
16	0xbe17b44b	-0.1481487
17	0xbc7dbbfc	-0.0154867135
18	0x3e068034	0.13134843
19	0xbda20f06	-0.07913022
20	0x3d849cf1	0.06475247
21	0xbe1d6b95	-0.1537307
22	0xbdccc2d8	-0.09998101
23	0xbd55a989	-0.052163634
24	0x3e38b79f	0.18038796
25	0x3e03797c	0.12839311
26	0x3dba9d63	0.091120504
27	0x3dceee39	0.10104031
28	0xbe15c350	-0.14625287
29	0x3e6c68b7	0.2308682
30	0xbe4cbd9e	-0.19994208
31	0xbc9b83a4	-0.01898367
32	0xbdfd6dc5	-0.123744525
33	0xbe4fa43e	-0.20277497
34	0xbe608f3b	-0.21929638
35	0xbd1a3948	-0.037652284
36	0xbe6c883e	-0.23098847
37	0xbe53fc51	-0.2070172
38	0xbe1ded0d	-0.15422459
39	0x3df36009	0.118835516
40	0xbcdc072a	-0.026858885
41	0xbd3bcd3f	-0.045850035
42	0xbd85b831	-0.06529272
43	0xbe808f50	-0.2510934
44	0xbe1c4b93	-0.15263204
45	0xbd97afdb	-0.07406589
46	0xbe3e2e8e	-0.18572447
47	0x3bcce3a4	0.006252723
48	0xbdc89d9d	-0.09795687
49	0x3a531a01	0.0008052886
50	0xbd93b7fc	-0.072128266
51	0x3da4c2b8	0.08044952
52	0x3db15a9b	0.0865986
53	0x3d51cdd7	0.051221695
54	0x3e4ec90c	0.20193881
55	0xbdb60eef	-0.08889567
56	0xbdfb6506	-0.12275128
57	0x3debb587	0.11509233
58	0x3e54de64	0.2078796
59	0x3e1b1302	0.1514397
60	0xbe2c0edf	-0.16802548
61	0x3e815c56	0.2526576
62	0x3e34f9d3	0.17673425
63	0xbdb15d7d	-0.086604096
64	0xbe6dfb05	-0.23240288
65	0x3e6e88cc	0.23294371
66	0xbe5a054e	-0.21291086
67	0xbdde1f66	-0.108458325
68	0xbcd91e62	-0.026503745
69	0x3e09079a	0.13381806
70	0xbd8197db	-0.06327792
71	0x3d95ded1	0.073178895
72	0x3e671e71	0.22570206
73	0x3e3de8b6	0.18545803
74	0xbd792092	-0.060822077
75	0xbe53710f	-0.20648597
76	0x3e00f49a	0.12593308
77	0xbe100079	-0.1406268
78	0x3d801c57	0.062554054
79	0x3e5ba5cd	0.21449967
80	0x3c7ae777	0.015313975
81	0x3dfa08be	0.12208699
82	0xbd0c868b	-0.034307998
83	0xbd74d46f	-0.059772905
84	0xbd35412d	-0.04425161
85	0x3e1dedd9	0.15422763
86	0xbc370a31	-0.011171863
87	0xbe1c4775	-0.15261634
88	0x3d44be88	0.048033267
89	0x3ddedf33	0.108824156
90	0xbe321bf6	-0.17393479
91	0x3cfcd708	0.030864254
92	0xbe514253	-0.20435457
93	0x3e4d383a	0.2004098
94	0xbe44613b	-0.19177715
95	0xbd4d457a	-0.050115086
96	0xbe5b9035	-0.2144173
97	0x3e7cd839	0.24691857
98	0xbd0cff04	-0.03442289
99	0x3e3ecc6e	0.18632671
100	0x3e3b8ef5	0.18316253
101	0x3cdb8cbe	0.02680051
102	0x3ddd38ab	0.10801824
103	0xbe0b2378	-0.13587749
104	0x3d9bb37c	0.07602593
105	0x3d8eaa24	0.069660455
106	0xbe075918	-0.1321758
107	0x3e805e30	0.2507186
108	0xbd9ed4df	-0.07755446
109	0x3e16c973	0.14725284
110	0x3df0cfb0	0.11758363
111	0x3da0330b	0.07822236
112	0x3d857290	0.06515992
113	0xbdf5b4a1	-0.11997343
114	0xbe520ca7	-0.20512639
115	0xbda9f5f7	-0.08298867
116	0xbc9aded9	-0.01890509
117	0xbe372dc7	-0.17888556
118	0xbd0a23dd	-0.03372561
119	0xbd14d420	-0.03633511
120	0xbe09583f	-0.1341257
121	0xbc3990e8	-0.011326052
122	0xbdfecafe	-0.124410614
123	0xbe3b9f3d	-0.18322463
124	0x3df775f1	0.120830424
125	0xbe407233	-0.18793564
126	0x3e829404	0.25503552
127	0x3d63d408	0.05562213
128	0xbd95a900	-0.07307625
129	0x3ca3770e	0.01995423
130	0x3e15174b	0.14559667
131	0xbd6f5dc1	-0.05843902
132	0xbe2ab46c	-0.16670388
133	0x3df16fdc	0.117889136
134	0x3e6b388e	0.22970793
135	0x3e6e7832	0.23288038
136	0x3dfd3074	0.12362757
137	0x3e403cfb	0.18773262
138	0xbe5a30f0	-0.2130773
139	0x3e37ffdb	0.17968695
140	0xbdb5d155	-0.088778175
141	0x3e39b745	0.18136318
142	0xbdb5d720	-0.088789225
143	0x3df60da2	0.12014319
144	0xbdc04706	-0.09388547
145	0x3e4db604	0.20088965
146	0xbdd6cd12	-0.10488333
147	0xbe0f9e83	-0.14025311
148	0x3e129f98	0.14318693
149	0x3e1ce549	0.1532184
150	0xbe2f12bb	-0.17096989
151	0xbdb8eab7	-0.09029143
152	0x3b8dae0f	0.004323728
153	0x3e527c46	0.20555219
154	0xbd9eee80	-0.07760334
155	0x3de4b759	0.11167783
156	0x3dd36b4d	0.103232004
157	0x3e243b31	0.16038205
158	0x3ca939af	0.020657388
159	0x3e03d67e	0.12874791
160	0xbe634dcc	-0.22197646
161	0x3e0055ff	0.12532805
162	0x3e107773	0.14108066
163	0x3e30f25b	0.17279951
164	0x3e37ec2a	0.17961183
165	0xbe63a244	-0.22229868
166	0x3e41b2b2	0.18915823
167	0xbe24e449	-0.16102709
168	0xbe11a1bb	-0.14221852
169	0xbd1c365c	-0.03813778
170	0x3afffae7	0.0019529731
171	0xbe5339c2	-0.20627502
172	0xbe5e1ee2	-0.21691468
173	0x3e2769ac	0.16348904
174	0xbe63c66e	-0.22243664
175	0x3e501a0b	0.20322435
176	0x3c8b4401	0.0170002
177	0xbddab3b3	-0.10678806
178	0xbd6fe8a7	-0.058571484
179	0xbe520ddc	-0.205131
180	0xbe012b1b	-0.126141
181	0x3dbf0608	0.09327322
182	0xbe624bb7	-0.22099195
183	0xbe62af07	-0.2213708
184	0x3e593c11	0.2121432
185	0xbdcaed42	-0.099085346
186	0xbe74f11e	-0.23920104
187	0xbe522b9c	-0.20524448
188	0x3e2b084d	0.16702385
189	0x3e5b8758	0.21438348
190	0x3c244be2	0.0100278575
191	0xbe4c31a2	-0.19940808
192	0x3e6ed963	0.23325114
193	0xbb59cbf6	-0.0033233142
194	0xbc7cdb00	-0.015433073
195	0x3db27005	0.08712772
196	0xbe28243b	-0.16420071
197	0x3d15fad3	0.036616158
198	0xbdc16f9a	-0.094451144
199	0x3e430033	0.19043045
200	0xbe261416	-0.162186
201	0x3dc7c814	0.09754959
202	0xbd9ea4a3	-0.07746246
203	0x3e305573	0.17220096
204	0xbcb27311	-0.021783384
205	0xbe449101	-0.1919594
206	0xbe7e4335	-0.24830325
207	0xbdd3ea76	-0.10347454
208	0xbdf3d76d	-0.119063236
209	0xbdfec954	-0.12440744
210	0xbd839e2c	-0.06426653
211	0x3e163597	0.1466888
212	0x3e180a08	0.14847577
213	0xbe014f11	-0.12627818
214	0x3e1b4423	0.15162711
215	0x3db726a7	0.08942919
216	0xbe45185a	-0.1924757
217	0xbd4b5719	-0.04964361
218	0xbe5c8e00	-0.21538544
219	0x3e1d4a44	0.15360361
220	0x3c4ad776	0.012380471
221	0x3de835ef	0.11338412
222	0x3e4b2ce1	0.19841339
223	0x3e5a3862	0.21310571
224	0xbddb3b6f	-0.107046954
225	0x3e11e42c	0.14247197
226	0xbb42f38a	-0.0029747211
227	0xbd596661	-0.05307615
228	0xbe05c078	-0.13061702
229	0x3da04453	0.07825532
230	0x3e36ee7e	0.17864415
231	0x3e372a82	0.17887309
232	0x3e2cd5d2	0.16878441
233	0x3e0859cd	0.13315506
234	0x3d91a15d	0.07110856
235	0x3e355f75	0.17712195
236	0x3e6ae7bf	0.22939967
237	0xbe527a1c	-0.20554394
238	0x3e73fc6d	0.23826762
239	0xbe0e559e	-0.13899848
240	0xbe377119	-0.17914237
241	0x3d9325b4	0.07184926
242	0xbe16737e	-0.14692494
243	0x3e69259d	0.22768255
244	0xbe0f638e	-0.14002821
245	0xbdd30c9c	-0.103051394
246	0x3e07675b	0.1322302
247	0x3e480238	0.19532096
248	0x3e801aac	0.2502035
249	0x3df92695	0.12165562
250	0x3e2808ba	0.16409579
251	0x3cacd053	0.02109543
252	0x3e1729a1	0.14761974
253	0xbdf47912	-0.11937155
254	0x3de4e43a	0.11176343
255	0xbe130aae	-0.14359543
