TST/model.pth (torch, 68625 bytes, 69 tensors)

positional_encoder f4 [24, 16]
0.7697554 -1.0772036 1.3086208 -2.5073152 -0.08599427 -0.77154976 1.1085258 0.19653863
-1.2879937 0.33158222 -1.3385092 -0.57110864 1.2686563 0.63890004 -1.2395082 0.06450726
0.65156144 -0.90215707 0.29834485 1.7396994 1.7618597 -0.29838842 -1.072486 -1.3290246
0.45034915 -0.37536144 1.9476032 1.9809196 -0.57186157 -1.8131343 -1.952688 -0.57994837
2.643911 -0.22186215 -1.4293205 1.5611628 -2.3684847 -0.41790462 -1.67348 -2.225956
-0.09052987 -1.2753841 0.8909034 0.44186288 1.1351912 1.0775238 -0.4347875 1.4110916
0.14932889 -0.9713115 1.4998889 -0.028006556 -0.34235862 -0.6350901 0.9020028 -1.5147736
1.8675083 -0.38428104 0.85607904 -0.35092887 -0.8556591 -0.547718 2.0059311 1.9864479
-0.403588 2.104601 1.784099 0.5819065 1.152534 -0.70745516 1.0149415 -0.25726435
-0.80994064 -1.0587175 -0.5673832 -0.4069785 1.8724705 -0.77368444 0.16969262 -1.6829367
-1.1418648 0.22623357 0.5881502 -0.7910618 -1.4110341 0.46365672 0.64674926 -1.664587
-0.15742594 0.3048871 -1.3348582 0.23403662 0.03882673 -0.66441274 -1.9981148 0.9626696
1.4220961 -0.66223234 -0.14591375 -2.4479172 0.17050084 -0.57571036 -0.043588217 0.33378798
0.1267297 -0.6595038 -1.1456239 0.04596566 1.3019637 -0.7471396 1.8798406 0.5078952
1.3843457 0.4598779 0.5629462 -0.66628635 1.9281412 0.13393846 0.7381908 -0.0750944
-0.10662811 -0.42221373 -1.2001247 -1.9515191 0.37619433 -1.1485944 0.14207333 0.50289935
0.4397926 1.5775505 -0.95206714 -1.5635018 -0.76837635 -1.0974827 1.4321505 0.9492013
-0.66598195 2.202839 0.4022405 -1.1708038 1.4755305 0.5994321 -2.3822722 0.08781061
-2.1986425 -1.0415131 0.607164 0.12111488 2.0003016 -1.2264962 1.0178397 1.9347488
0.48018134 0.61237824 2.3343003 0.107446924 -0.3916577 -0.39713395 -0.18815334 -0.7792572
-0.533941 1.1359366 1.0267451 0.29616702 2.2448156 0.56117994 -0.49702483 0.17068176
-1.6999032 -1.0300018 0.5169479 2.0968091 1.103934 1.318571 -0.93071014 0.6106794
1.0550832 0.0731719 -0.34348723 -0.8418698 -0.5141604 2.5165458 1.5858324 0.85612756
0.52129793 -0.65627027 0.06438157 0.8680988 1.4276344 -0.08848123 -1.3138059 0.570461
0.25840485 -1.5681641 0.33258468 0.13528171 -1.5075483 -0.16132237 1.1666759 -2.4778671
-1.0086966 -0.21472217 -0.47665253 -0.038147345 0.8666339 -0.7794711 1.3362129 0.030284857
1.9520644 1.0707824 -0.49275148 0.5843789 -1.1289544 1.6256406 -0.66469914 -1.1705315
-0.7559018 -1.1833669 -0.11120015 -2.344282 -0.8146387 0.23614493 0.14163733 1.3306483
-0.94985336 1.7627052 -0.075038895 0.6102408 0.05105335 -0.4382848 -1.2799053 0.50010556
1.9858277 -0.8803519 -0.8414653 -0.24146546 0.3446659 -0.39171574 -0.4972304 -1.401271
0.3579082 0.15309493 -0.41892356 0.08330263 1.1393253 0.33056003 1.6847 0.28814533
-0.107815064 -0.5589994 -0.0276255 -1.8956194 0.90379745 0.084691316 0.9904368 1.882961
00000000: b10e 453f cfe1 89bf e380 a73f da77 20c0
00000010: c41d b0bd 4984 45bf 2ce4 8d3f 6c41 493e
00000020: fadc a4bf 25c5 a93e 4554 abbf 2d34 12bf
00000030: 5463 a23f f48e 233f 34a8 9ebf 621c 843d
00000040: bbcc 263f c4f3 66bf a8c0 983e 78ae de3f
00000050: 9e84 e13f 5ec6 98be 3947 89bf 7a1d aabf
00000060: 2a94 e63e 602f c0be 104b f93f c68e fd3f
00000070: 8565 12bf c914 e8bf aef1 f9bf 7f77 14bf
00000080: d635 2940 d52f 63be f9f3 b6bf 2fd4 c73f
00000090: 4195 17c0 98f7 d5be 9834 d6bf 1076 0ec0
000000a0: b967 b9bd c93f a3bf 3f12 643f da3b e23e
000000b0: f24d 913f 4dec 893f 789c debe a69e b43f
000000c0: ace9 183e dfa7 78bf 5cfc bf3f 016e e5bc
000000d0: a149 afbe 4495 22bf a8e9 663f 1ae4 c1bf
000000e0: 830a ef3f 7cc0 c4be ff27 5b3f f3ac b3be
000000f0: 7a0c 5bbf 3f37 0cbf 2d61 0040 ed43 fe3f
00000100: 16a3 cebe c8b1 0640 5b5d e43f d3f7 143f
00000110: 3c86 933f c81b 35bf 9ae9 813f 27b8 83be
00000120: 4558 4fbf 0e84 87bf 0740 11bf 7c5f d0be
00000130: 1dad ef3f 2f10 46bf e7c3 2d3e 786a d7bf
00000140: a028 92bf c6a9 673e 0391 163f 0783 4abf
00000150: c49c b4bf 6a64 ed3e 5c91 253f 3011 d5bf
00000160: 4434 21be 291a 9c3e a2dc aabf 4ca7 6f3e
00000170: c708 1f3d f416 2abf 3ac2 ffbf 8471 763f
00000180: 3f07 b63f 0f88 29bf 6a6a 15be adaa 1cc0
00000190: c697 2e3e c161 13bf 8f89 32bd 42e6 aa3e
000001a0: 6ec5 013e 3ed5 28bf cea3 92bf 7d46 3c3d
000001b0: bfa6 a63f 8a44 3fbf 9e9e f03f 6b05 023f
000001c0: 3d32 b13f 1e75 eb3e 3e1d 103f be91 2abf
000001d0: 55cd f63f 2a27 093e 13fa 3c3f 18cb 99bd
000001e0: d75f dabd 662c d8be b09d 99bf 61cb f9bf
000001f0: 8b9c c03e 2405 93bf ac7b 113e 03be 003f
00000200: 7f2c e13e 2ded c93f acba 73bf d420 c8bf
00000210: 50b4 44bf 507a 8cbf b550 b73f dbfe 723f
00000220: cb7d 2abf 50fb 0c40 78f2 cd3e e6dc 95bf
00000230: 2fde bc3f 6274 193f 2677 18c0 0dd6 b33d
00000240: 8fb6 0cc0 4d50 85bf 1a6f 1b3f 140b f83d
00000250: f104 0040 d4fd 9cbf 9248 823f d9a5 f73f
00000260: 54da f53e d2c4 1c3f 2d65 1540 220d dc3d
00000270: 5c87 c8be 2455 cbbe 45ab 40be 667d 47bf
00000280: 5bb0 08bf 5f66 913f 626c 833f 34a3 973e
00000290: 0fab 0f40 7da9 0f3f 0a7a febe 33c7 2e3e
000002a0: 6e96 d9bf 19d7 83bf b356 043f 1f32 0640
000002b0: b64d 8d3f efc6 a83f 0543 6ebf 7c55 1c3f
000002c0: f70c 873f 26db 953d 8fdd afbe c784 57bf
000002d0: 04a0 03bf 160f 2140 8efc ca3f 2d2b 5b3f
000002e0: c873 053f 5401 28bf 7cda 833d b93b 5e3f
000002f0: b9bc b63f a635 b5bd cb2a a8bf bb09 123f
00000300: a44d 843e 9ab9 c8bf 8a48 aa3e 4a87 0a3e
00000310: 58f7 c0bf b131 25be a355 953f 6095 1ec0
00000320: f81c 81bf 21e0 5bbe cd0b f4be 6440 1cbd
00000330: b8db 5d3f 6b8b 47bf 0609 ab3f f317 f83c
00000340: 3fdd f93f 660f 893f ec49 fcbe db99 153f
00000350: 9481 90bf fe14 d03f b929 2abf fad3 95bf
00000360: c882 41bf 9178 97bf e7bc e3bd b708 16c0
00000370: 298c 50bf facf 713e 6009 113e af52 aa3f
00000380: 9729 73bf 53a0 e13f fead 99bd be38 1c3f
00000390: 511d 513d de66 e0be f0d3 a3bf eb06 003f
000003a0: 9a2f fe3f be5e 61bf 456a 57bf b942 77be
000003b0: 0d78 b03e f78e c8be fc94 febe d95c b3bf
000003c0: be3f b73e ebc4 1c3e 267d d6be 929a aa3d
000003d0: 69d5 913f 2a3f a93e 40a4 d73f c987 933e
000003e0: 25ce dcbd 961a 0fbf df4e e2bc a8a3 f2bf
000003f0: 455f 673f a472 ad3d 448d 7d3f de04 f13f

embedding_projection.weight f4 [16, 6]
-0.28005126 -0.09786829 0.23866646 -0.16710153 -0.4002286 0.31295535 0.33420208 0.067683876
-0.3260985 -0.010227526 7.303484e-05 0.3328752 -0.3235617 0.18435569 0.062264707 0.036804646
-0.22536696 -0.11819887 0.37450004 0.34645078 0.18486631 -0.17396106 0.14061001 0.31843692
-0.112550065 0.3244842 0.057705685 -0.37778154 0.3415201 0.20599642 -0.16271193 0.2284697
0.134269 -0.23267272 0.1257775 -0.014429603 0.17304271 0.084146686 -0.3191439 0.1517153
0.24031283 -0.033454478 0.28340143 -0.013292644 0.00521501 -0.0767868 -0.16798897 -0.12632865
0.32351667 -0.3430281 0.3293713 -0.018375 -0.090220965 -0.2514684 0.24857861 0.00027524284
-0.30895677 -0.282194 0.13507502 -0.09399738 -0.0002099788 -0.12825768 0.15959066 0.1284931
-0.13668174 -0.31911695 -0.24409536 0.31712022 -0.333159 -0.063961945 0.025039773 -0.07718937
0.12460836 0.2405762 0.30839524 0.29903856 -0.3455897 0.23795545 -0.30425525 0.07071921
-0.115281746 0.1448157 -0.23635021 0.21210681 0.3926741 -0.29053664 0.07102548 -0.0015417178
0.35197002 0.39752603 0.3766362 -0.19192481 -0.08373355 0.11272617 -0.32106313 0.34003302
00000000: e162 8fbe 2c6f c8bd fb64 743e aa1c 2bbe
00000010: c3ea ccbe af3b a03e 891c ab3e d89d 8a3d
00000020: 62f6 a6be 5a91 27bc 482a 9938 9e6e aa3e
00000030: e1a9 a5be bdc7 3c3e 4709 7f3d 78c0 163d
00000040: 99c6 66be 4012 f2bd 78be bf3e ff61 b13e
00000050: 984d 3d3e d922 32be 12fc 0f3e 2a0a a33e
00000060: a680 e6bd cb22 a63e cc5c 6c3d 956c c1be
00000070: b9db ae3e baf0 523e f59d 26be f6f3 693e
00000080: d07d 093e c241 6ebe d1cb 003e 246a 6cbc
00000090: 1c32 313e 1955 ac3d d466 a3be 415b 1b3e
000000a0: 9114 763e 9007 09bd fe19 913e 64c9 59bc
000000b0: ade2 aa3b 6642 9dbd 4d05 2cbe 4c5c 01be
000000c0: faa3 a53e 61a1 afbe 5ba3 a83e 2b87 96bc
000000d0: c5c5 b8bd 77c0 80be 648b 7e3e 784e 9039
000000e0: 952f 9ebe bb7b 90be 1b51 0a3e b381 c0bd
000000f0: c12d 5cb9 fb55 03be bc6b 233e b293 033e
00000100: 4cf6 0bbe 4c63 a3be 22f4 79be 955d a23e
00000110: d193 aabe 7bfe 82bd 3620 cd3c 7615 9ebd
00000120: ab32 ff3d 9b59 763e fbe5 9d3e 951b 993e
00000130: 22f1 b0be 98aa 733e 58c7 9bbe 3cd5 903d
00000140: d618 ecbd 914a 143e ca05 72be 8732 593e
00000150: 940c c93e 38c1 94be cf75 913d 7713 caba
00000160: 6a35 b43e 8888 cb3e 76d6 c03e f087 44be
00000170: 7f7c abbd fadc e63d 6362 a4be cf18 ae3e

embedding_projection.bias f4 [16]
-0.3137488 0.04307183 0.084453925 0.39371416 0.049127508 -0.25421417 -0.33567265 -0.17808403
0.07770045 -0.39601395 0.09100868 -0.14871447 0.015629219 0.30467725 0.31709754 0.29221255
00000000: afa3 a0be 166c 303d 2ef6 ac3d e794 c93e
00000010: ed39 493d 5c28 82be 49dd abbe a95b 36be
00000020: 6a21 9f3d 57c2 cabe c262 ba3d 9b48 18be
00000030: d908 803c a8fe 9b3e 9c5a a23e e29c 953e

mlp.0.weight f4 [16, 2]
-0.07059687 0.1600296 -0.4623859 0.0086680055 -0.22812976 -0.19012578 0.27784786 -0.30846313
-0.12815836 0.025625031 0.17888218 -0.09838536 0.429641 -0.41935962 -0.56822795 0.55455315
0.08270382 0.53335905 -0.46301448 0.22057232 -0.31362608 0.59463024 -0.0744637 -0.67685807
-0.40292504 0.052139614 -0.3284009 -0.44319755 0.23673289 0.12670274 0.29900664 0.55218846
00000000: 1795 90bd cdde 233e d8bd ecbe 4004 0e3c
00000010: d99a 69be 55b0 42be 1342 8e3e e1ee 9dbe
00000020: f23b 03be 96eb d13c e42c 373e 437e c9bd
00000030: e8f9 db3e 4eb6 d6be 6377 11bf 32f7 0d3f
00000040: 9f60 a93d 388a 083f 3c10 edbe b6dd 613e
00000050: 9993 a0be b039 183f 6d80 98bd 9246 2dbf
00000060: 314c cebe 5990 553d 2a24 a8be caea e2be
00000070: 1b6a 723e 5dbe 013e 6617 993e 395c 0d3f

mlp.0.bias f4 [16]
0.61955535 0.6944904 0.2476225 -0.5949724 -0.29954246 0.54124945 -0.504689 -0.20412073
0.6410058 0.61414105 -0.10929849 0.09478 -0.68781 0.06297397 -0.38313988 -0.09965494
00000000: 2e9b 1e3f 1fca 313f c190 7d3e 1c50 18bf
00000010: a15d 99be 538f 0a3f 4c33 01bf 0605 51be
00000020: f518 243f 5938 1d3f e3d7 dfbd 041c c23d
00000030: 5114 30bf 7ff8 803d e92a c4be e417 ccbd

mlp.2.weight f4 [16, 16]
-0.15645345 0.14152351 -0.11488119 0.22877426 0.10952839 -0.12353929 -0.20836508 0.23825541
-0.22812425 -0.04468116 -0.20978767 -0.01127997 -0.19094926 0.064246476 0.08499191 -0.13758099
-0.04116459 0.08770841 0.15029952 -0.0141194835 0.19178122 -0.22232553 0.13536431 -0.113991946
0.23153226 0.041880697 0.008726478 -0.070014775 0.020262957 -0.056155264 -0.1259021 -0.053515196
0.085346155 0.06665468 0.09270412 0.1849129 0.059052765 0.24969953 -0.20026506 -0.06622437
-0.059414193 0.11104837 -0.24720782 -0.028819501 0.118480295 -0.06697506 -0.067502506 -0.25854182
0.17407852 0.2042287 0.081126034 0.010234404 0.17767334 0.061917916 -0.080862485 0.23989636
0.24358672 -0.007561356 0.04075384 -0.097964406 0.15787393 -0.0924477 0.13967836 -0.1800012
-0.124167606 -0.17203695 0.017187536 -0.19766112 0.19401866 -0.06256072 -0.15907535 -0.21588176
0.20330413 0.026174575 0.07111439 0.024285346 -0.18687096 0.17950907 -0.13647448 0.15252507
-0.07581972 -0.004226476 0.20944104 -0.15932864 -0.16770247 0.20383489 0.1491256 0.121525556
-0.032362234 -0.20743373 0.12451634 -0.21037683 0.2288621 -0.1446634 -0.045817282 -0.03513397
-0.04715657 0.07478708 -0.14116684 -0.0034101505 -0.23459262 -0.08580511 0.17203675 -0.038018554
-0.16697435 0.006922066 -0.1274162 0.19145453 0.059727132 0.17891213 -0.21794261 0.22484002
-0.22096875 -0.018914878 -0.22131714 0.20211367 0.040677845 0.0670881 0.05637267 -0.19553831
0.18734749 -0.015884608 0.08643925 0.06687352 -0.19895482 0.24595687 0.024701314 0.16229531
-0.20307432 0.19030881 0.18379378 0.070412196 -0.17961586 -0.23701015 -0.028964944 0.15299976
-0.06494001 0.12384871 0.0626224 0.0142611265 0.083732456 -0.0029301047 0.22334589 -0.15401337
0.13487534 0.2489909 -0.081477344 -0.19471985 0.12435195 -0.0053387918 0.11400063 -0.24864727
0.1323295 0.006305903 0.18580586 0.19037688 0.12289348 -0.047576785 -0.22353539 0.01748687
0.19119091 -0.072710276 0.20803109 -0.037136473 0.22702786 -0.20604515 -0.07598674 0.13734189
0.035522394 -0.241153 0.09384629 -0.15543514 0.054766506 0.19382966 -0.05718088 0.12818514
-0.07022521 -0.17312801 -0.22791657 -0.26088008 -0.104572386 -0.17482752 0.20415767 -0.02289468
0.1736036 -0.13027936 -0.06621882 0.24123678 -0.1605033 0.06556767 0.020575086 0.24217881
0.24397926 -0.14017144 0.2404624 -0.06295753 0.16397965 0.17455389 0.16884574 -0.11473608
-0.24817625 -0.0042583346 0.03858486 0.23622999 0.03213954 0.16849798 0.22768013 -0.13360299
0.16606988 0.028639346 0.05150166 -0.15577884 -0.0112145245 0.19713369 -0.094378866 0.03725916
-0.013711621 0.16387767 -0.20622936 0.19261771 -0.02411002 -0.19987312 -0.23181862 -0.11132485
0.22955605 0.12247634 -0.17478937 -0.15339935 0.19999799 -0.04148748 -0.0018633031 0.062099606
0.09152657 -0.2244854 0.0043697357 -0.24862191 -0.04418966 -0.23457447 0.10357578 -0.17699586
-0.11926446 -0.24855766 -0.19480449 0.08046171 0.098588705 -0.04939396 -0.0754134 0.012738019
-0.25224447 -0.107738376 0.224165 -0.0073013604 0.16014543 0.022298723 0.1447417 0.038143538
00000000: 5535 20be 8aeb 103e d446 ebbd cd43 6a3e
00000010: 6c50 e03d 2b02 fdbd a85d 55be 3af9 733e
00000020: 6799 69be 9803 37bd 94d2 56be a0cf 38bc
00000030: 3488 43be a893 833d 3d10 ae3d 08e2 0cbe
00000040: 339c 28bd 78a0 b33d 1ee8 193e 6855 67bc
00000050: 4c62 443e 4ea9 63be f19c 0a3e 9c74 e9bd
00000060: cb16 6d3e 188b 2b3d 80f9 0e3c e863 8fbd
00000070: 80fe a53c 1003 66bd 7bec 00be c032 5bbd
00000080: f7c9 ae3d 4082 883d a8db bd3d cf59 3d3e
00000090: 50e1 713d 3cb1 7f3e 4912 4dbe a4a0 87bd
000000a0: 4c5c 73bd 546d e33d 0c24 7dbe e016 ecbc
000000b0: cca5 f23d 382a 89bd c13e 8abd 985f 84be
000000c0: a441 323e 5421 513e 6825 a63d 34ae 273c
000000d0: 00f0 353e a49d 7d3d 3b9b a5bd 64a7 753e
000000e0: cc6e 793e 40c5 f7bb 80ed 263d 90a1 c8bd
000000f0: b4a9 213e 3855 bdbd d807 0f3e 3c52 38be
00000100: 964b febd 742a 30be e0cc 8c3c ad67 4abe
00000110: d4ac 463e d61f 80bd a6e4 22be 1c10 5dbe
00000120: f52e 503e 106c d63c 6ca4 913d 10f2 c63c
00000130: 1a5b 3fbe 3ad1 373e f7bf 0bbe 882f 1c3e
00000140: 5f47 9bbd 407e 8abb b677 563e 0c27 23be
00000150: 32ba 2bbe 18ba 503e 62b4 183e 64e2 f83d
00000160: 438e 04bd 8269 54be 6c02 ff3d 066d 57be
00000170: d45a 6a3e a422 14be e7aa 3bbd a3e8 0fbd
00000180: 3f27 41bd f829 993d 0a8e 10be d57c 5fbb
00000190: 0c39 70be 97ba afbd 672a 303e 58b9 1bbd
000001a0: 53fb 2abe 80d2 e23b 6479 02be a80c 443e
000001b0: 70a4 743d be34 373e 592c 5fbe 763c 663e
000001c0: a245 62be 60f3 9abc f6a0 62be e3f6 4e3e
000001d0: d09d 263d 7c65 893d 07e7 663d 323b 48be
000001e0: 05d8 3f3e 7020 82bc 1007 b13d fcf4 883d
000001f0: d0ba 4bbe 1edc 7b3e 695a ca3c be30 263e
00000200: b7f2 4fbe 50e0 423e 7034 3c3e 4534 903d
00000210: 38ed 37be cab2 72be e447 edbc f8ab 1c3e
00000220: 45ff 84bd 64a4 fd3d 2c40 803d 80a7 693c
00000230: ec7b ab3d 0007 40bb c9b4 643e aeb5 1dbe
00000240: c31c 0a3e 78f7 7e3e 98dd a6bd a464 47be
00000250: 3cac fe3d 08f1 aebb 2a79 e93d 649d 7ebe
00000260: 6281 073e c0a1 ce3b e443 3e3e 28f2 423e
00000270: 94af fb3d e0df 42bd 76e6 64be a040 8f3c
00000280: 8dc7 433e 20e9 94bd 1a06 553e 6a1c 18bd
00000290: fe79 683e 80fd 52be f09e 9bbd 5aa3 0c3e
000002a0: ee7f 113d d0f0 76be 7c32 c03d 642a 1fbe
000002b0: d852 603d 487b 463e 8036 6abd f742 033e
000002c0: 3cd2 8fbd 7848 31be f662 69be 1392 85be
000002d0: 0c2a d6bd fc05 33be b50e 513e a08d bbbc
000002e0: 24c5 313e f467 05be bc9d 87bd c606 773e
000002f0: fa5a 24be 5848 863d 158d a83c b9fd 773e
00000300: b3d5 793e 1a89 0fbe c63b 763e e1ef 80bd
00000310: 48ea 273e 41be 323e e6e5 2c3e c0fa eabd
00000320: ea21 7ebe 8089 8bbb 280b 1e3d 46e6 713e
00000330: c0a4 033d bc8a 2c3e fb24 693e 39cf 08be
00000340: 390e 2a3e 109d ea3c 68f3 523d 7d84 1fbe
00000350: 20bd 37bc 6add 493e b549 c1bd 109d 183d
00000360: b5a6 60bc 8ccf 273e ca2d 53be 943d 453e
00000370: 6082 c5bc 8aab 4cbe dc61 6dbe 48fe e3bd
00000380: be10 6b3e e0d4 fa3d fcfb 32be b814 1dbe
00000390: 46cc 4c3e c7ee 29bd 143a f4ba 285c 7e3d
000003a0: 4872 bb3d 80df 65be 0030 8f3b be96 7ebe
000003b0: 3800 35bd 4a34 70be 8a1f d43d 673e 35be
000003c0: ed40 f4bd e685 7ebe d47a 47be 1cc9 a43d
000003d0: e0e8 c93d 5251 4abd 5772 9abd 20b3 503c
000003e0: 3026 81be f0a5 dcbd 828b 653e 4040 efbb
000003f0: 2afd 233e d0ab b63c 2b37 143e 663c 1c3d

mlp.2.bias f4 [16]
0.06310668 -0.2181467 -0.03548361 -0.0036045138 -0.09040839 -0.22675307 0.19598205 0.041805927
0.16731687 -0.24029034 0.080557026 0.22502467 0.052406233 0.045674022 -0.0745173 0.22871858
00000000: 133e 813d d961 5fbe 4357 11bd b539 6cbb
00000010: 0928 b9bd f531 68be 85af 483e b13c 2b3d
00000020: 1d55 2b3e ac0e 76be 15fb a43d de6c 663e
00000030: eba7 563d af14 3b3d 879c 98bd 3435 6a3e

encoder.layers.0.query_embedding.weight f4 [16, 16]
0.14876477 0.056313798 -0.004639559 0.05228982 0.20361583 0.25025755 0.19124372 -0.08479739
-0.16905989 0.009515386 -0.028719066 0.13761468 -0.05947685 -0.14442441 -0.10551046 0.16410013
0.25690317 -0.026599944 0.06930818 -0.04996269 -0.23247443 0.049100712 -0.03344978 -0.16448756
-0.10446133 -0.18857446 0.06505512 -0.26019025 0.047601976 -0.19405858 0.061002523 0.02271799
0.11523338 0.09618744 -0.09179621 0.18650539 0.08628547 0.16044381 -0.07413445 -0.19062848
-0.08037894 0.16603917 0.24007308 0.007730076 -0.14157115 0.068743534 -0.14623207 -0.019778827
-0.11426032 -0.06259937 0.08179249 0.24903777 0.026398124 0.03297078 0.233963 0.03782908
0.045814138 0.25315973 0.0021890607 0.19954094 0.10218909 0.05076609 0.10892786 0.25777608
-0.21573868 0.04694862 -0.14767252 0.038645722 0.16895778 0.05341819 0.22633007 -0.10106879
0.08696994 -0.23629327 0.15660918 -0.19060719 -0.15580924 0.06529045 -0.23730527 0.11030325
-0.08322791 -0.024858251 0.12856662 0.05070513 0.022545673 -0.09796197 0.22250248 -0.12952347
0.054485265 0.14869489 0.16601883 -0.21043554 -0.18815131 0.07352179 0.004275635 0.03132116
-0.059933003 0.06387491 -0.17364947 -0.044443414 0.10391095 0.0006434266 0.19496655 0.2464267
0.18992734 0.11878402 0.0040266677 -0.12872152 -0.023184394 0.018812062 0.060971867 -0.05679058
-0.11764062 -0.06699049 -0.014976365 0.036167845 -0.23317778 0.16994165 -0.14054066 -0.14055757
0.17691422 0.020703617 -0.016852079 -0.06137228 -0.062748 -0.0626276 -0.07870273 -0.17908768
0.21460603 -0.09172334 -0.063791424 -0.05049839 -0.07486377 0.124887146 0.051262736 0.22461535
-0.24199203 0.057083335 -0.12322222 -0.15349677 -0.24921429 -0.07303487 -0.15463118 0.13423687
0.021483408 -0.24375938 0.023442034 0.10726724 -0.19182101 0.0054669254 -0.24894227 -0.14501926
-0.22274983 -0.21253891 -0.18017928 0.11549414 -0.20446701 -0.02494174 -0.15727232 0.11116521
-0.02026823 -0.09110626 -0.1710664 -0.16594757 0.12795821 0.23283099 -0.18196575 0.0036570146
-0.04714284 -0.17657652 0.01981584 0.14657496 0.063453086 0.085358754 0.22733842 -0.20992742
-0.12758218 -0.029799618 -0.16583626 0.014289644 0.018269632 0.08831243 0.045843635 -0.080721915
-0.11893935 -0.22723295 -0.124001905 -0.18013294 -0.16888258 0.15044667 -0.095155045 0.20878951
-0.010576764 0.1987105 0.22533616 -0.11163 -0.16733225 -0.00965724 -0.20879203 0.066291906
0.096811466 0.0775443 0.22153115 -0.21074349 -0.1241765 -0.06376673 -0.080244176 0.1361618
0.20263371 0.033269707 0.0633634 -0.1061116 -0.24200131 -0.19862053 0.09986742 0.120959364
-0.105786234 0.14745677 0.20815444 0.1468083 -0.21840642 0.1329072 -0.10271423 -0.14726883
-0.0382582 0.097842395 0.030270137 -0.24358724 0.14092241 -0.06206395 -0.23285031 0.03037829
-0.17713593 0.16608456 -0.2379181 -0.0061755814 0.020493297 0.11915596 0.05603078 -0.08069858
0.00757094 -0.19599202 -0.032489117 0.063848086 0.23152521 0.027075663 -0.018105835 0.038787622
0.085320055 0.15005147 -0.019090185 0.05016755 -0.0321522 -0.16475195 -0.057304736 -0.110784486
00000000: cb55 183e 4ca9 663d 7107 98bb da2d 563d
00000010: ab80 503e c221 803e 65d5 433e 41aa adbd
00000020: 091e 2dbe 6ce6 1b3c 3f44 ebbc ddea 0c3e
00000030: ff9d 73bd fee3 13be de15 d8bd dd09 283e
00000040: d088 833e 20e8 d9bc 72f1 8d3d ada5 4cbd
00000050: c70d 6ebe d41d 493d a302 09bd 6d6f 28be
00000060: d2ef d5bd aa19 41be 9e3b 853d a837 85be
00000070: 4afa 423d 4bb7 46be c8dd 793d 141b ba3c
00000080: 7aff eb3d ecfd c43d a7ff bbbd 45fb 3e3e
00000090: 70b6 b03d 624b 243e cdd3 97bd 1d34 43be
000000a0: b79d a4bd 2c06 2a3e b8d5 753e 944c fd3b
000000b0: 07f8 10be 69c9 8c3d dcbd 15be 3507 a2bc
000000c0: 5101 eabd 1934 80bd d282 a73d c203 7f3e
000000d0: e140 d83c 5e0c 073d ff93 6f3e aaf2 1a3d
000000e0: 9ba7 3b3d 279e 813e 5876 0f3b 7654 4c3e
000000f0: 8348 d13d 1bf0 4f3d 9215 df3d 3afb 833e
00000100: 9aea 5cbe 324d 403d 7737 17be fa4a 1e3d
00000110: 4503 2d3e 08cd 5a3d 12c3 673e 27fd cebd
00000120: 4c1d b23d ddf6 71be 285e 203e 882e 43be
00000130: 758c 1fbe 00b7 853d 2700 73be ace6 e13d
00000140: 6573 aabd 88a3 cbbc f8a6 033e 2fb0 4f3d
00000150: b4b1 b83c 49a0 c8bd b1d7 633e cda1 04be
00000160: f12b 5f3d 7943 183e d700 2a3e 6a7c 57be
00000170: bdaa 40be 9892 963d a01a 8c3b 9e4a 003d
00000180: 4f7c 75bd d9d0 823d 2bd1 31be 4c0a 36bd
00000190: 44cf d43d a1ab 283a 50a5 473e 4857 7c3e
000001a0: 507c 423e 0945 f33d 23f2 833b 93cf 03be
000001b0: 33ed bdbc c11b 9a3c a3bd 793d 3d9d 68bd
000001c0: 91ed f0bd 4f32 89bd 6d5f 75bc bc24 143d
000001d0: 28c6 6ebe 2f05 2e3e e4e9 0fbe 53ee 0fbe
000001e0: 0029 353e a29a a93c 5f0d 8abc 8061 7bbd
000001f0: 0682 80bd e642 80bd e62e a1bd c362 37be
00000200: afc1 5b3e 72d9 bbbd 14a5 82bd 66d7 4ebd
00000210: 2d52 99bd d5c4 ff3d e0f8 513d 9101 663e
00000220: c2cc 77be 37d0 693d ee5b fcbd 422e 1dbe
00000230: 0832 7fbe 4e93 95bd a357 1ebe 6475 093e
00000240: f9fd af3c 0f9c 79be 8209 c03c edae db3d
00000250: ba6c 44be e523 b33b b9ea 7ebe ee7f 14be
00000260: 8818 64be cda3 59be eb80 38be 3188 ec3d
00000270: cd5f 51be 9f52 ccbc ff0b 21be 96aa e33d
00000280: 8f09 a6bc eb95 babd 082c 2fbe 29ee 29be
00000290: 7a07 033e 3f6b 6e3e 3b55 3abe 86aa 6f3b
000002a0: da18 41bd 7ad0 34be d454 a23c bf17 163e
000002b0: b1f3 813d 92d0 ae3d 67cb 683e 37f7 56be
000002c0: e7a4 02be 541e f4bc fbd0 29be 1c1f 6a3c
000002d0: 32aa 953c 26dd b43d 89c6 3b3d 8851 a5bd
000002e0: 7996 f3bd c1af 68be b6f4 fdbd c574 38be
000002f0: 8eef 2cbe b10e 1a3e a6e0 c2bd ebcc 553e
00000300: 2a4a 2dbc c47a 4b3e 86be 663e 459e e4bd
00000310: 2559 2bbe 6639 1ebc 94cd 55be 0dc4 873d
00000320: 1745 c63d 8ccf 9e3d 10d9 623e 24cd 57be
00000330: 4050 febd 2298 82bd 0f57 a4bd 006e 0b3e
00000340: 367f 4f3e d145 083d acc4 813d 0a51 d9bd
00000350: 31cf 77be 2e63 4bbe 4a87 cc3d 8bb9 f73d
00000360: 74a6 d8bd e8fe 163e 7026 553e ea54 163e
00000370: efa5 5fbe d318 083e d75b d2bd a4cd 16be
00000380: a1b4 1cbd 9861 c83d 14f9 f73c ef6e 79be
00000390: f74d 103e c536 7ebd 5070 6ebe e4db f83c
000003a0: 1f63 35be 1212 2a3e cda0 73be 885c cabb
000003b0: 8fe1 a73c 0a08 f43d 8880 653d 4c45 a5bd
000003c0: a615 f83b 22b2 48be 4f13 05bd c9c2 823d
000003d0: f214 6d3e c8cd dd3c b052 94bc c5df 1e3d
000003e0: 48bc ae3d 18a7 193e 0563 9cbc 7d7c 4d3d
000003f0: 06b2 03bd bcb4 28be 5fb8 6abd fae2 e2bd

encoder.layers.0.query_embedding.bias f4 [16]
0.14786884 0.117266096 -0.05539827 -0.024605189 -0.17347082 0.17566743 -0.0013693089 0.12976414
0.027588928 -0.03273727 -0.0263474 -0.25792202 0.03543354 -0.026047068 -0.006345812 -0.042505573
00000000: ee6a 173e 3529 f03d 4ce9 62bd d290 c9bc
00000010: 56a2 31be 2ae2 333e 627a b3ba e4e0 043e
00000020: 2d02 e23c 8417 06bd 81d6 d7bc 5b0e 84be
00000030: c222 113d a960 d5bc 88f0 cfbb 531a 2ebd

encoder.layers.0.key_embedding.weight f4 [16, 16]
0.2039638 -0.047139987 0.08755963 -0.10616744 -0.19079691 -0.22844505 0.23964386 -0.16004726
0.016981432 0.11182814 -0.15824586 0.025380053 -0.041013245 0.23161744 -0.029551206 -0.1672202
0.04154495 0.15467647 0.0019518988 0.16787246 0.23175175 0.019351589 -0.11662492 -0.2269421
0.018988637 0.012586669 0.032436974 -0.042111345 -0.22602804 -0.035175946 0.11307569 -0.17450276
-0.06579604 -0.035741948 0.15438469 0.123371266 0.08785008 -0.024387859 0.18261077 -0.088421635
0.19132568 -0.16006419 0.22016937 0.15685469 -0.0038330688 0.0115670245 0.1080611 -0.14025404
0.04655805 0.07852341 -0.18291642 -0.027338665 -0.047913436 0.10818179 -0.0066849687 0.2082514
0.10379137 0.039035194 0.21262069 0.21670571 -0.17934963 0.16280499 0.07085896 -0.23679222
0.13665514 0.16269195 -0.24234238 0.18639217 0.17163664 0.058095213 0.21628423 -0.14283678
0.10386454 -0.2228182 0.02083463 0.034887254 -0.07384384 0.15072937 -0.13860846 0.1321802
0.23383044 -0.11822072 0.17336161 0.19921829 -0.15247773 0.014392101 0.13441014 0.055187702
-0.03186276 0.15456145 0.14651957 0.044672254 0.17276967 -0.19840533 -0.1549423 -0.12651365
0.15357505 0.052951925 0.10165285 -0.2416282 -0.16487403 0.20873159 -0.044894945 -0.07995446
0.047160216 -0.10008368 -0.04817468 -0.17846161 0.16859376 -0.2363836 0.1381965 -0.039841123
-0.08333754 -0.00213463 0.04634345 0.08002507 0.12581024 -0.16913763 -0.21420163 -0.133128
-0.081531316 -0.03594624 -0.04354984 -0.12000078 -0.22296864 0.19993395 -0.10259686 0.11015306
-0.23375387 0.17031422 0.04836967 0.06662151 -0.02542325 -0.12795673 0.21006423 -0.048033718
0.076054305 0.010741879 0.18551438 0.2066379 0.05980508 0.16040006 -0.025746627 -0.10537788
-0.24251787 0.24009691 0.16645697 0.16888839 -0.1543853 0.23744257 0.22001572 -0.05195692
-0.22604564 0.20113924 -0.21728134 -0.205945 0.16085812 -0.078730255 -0.086224996 0.15692477
0.04826426 0.029783374 -0.22383736 0.13652036 0.18331508 -0.07130392 -0.14817147 -0.14632826
0.182776 -0.15633214 -0.050262835 -0.03777005 -0.1870927 0.18067034 -0.1976914 -0.18920307
0.062392924 0.24657172 -0.11099834 0.17653894 0.20975943 -0.12385297 0.20838395 -0.15939379
-0.13454854 -0.22378783 -0.13257377 -0.2575056 -0.22111161 0.21769752 0.17311777 0.106389955
-0.17129168 0.091703 0.13701509 0.07762771 -0.11872332 -0.019448088 -0.12161936 0.23571172
-0.016147358 -0.015402006 -0.13991527 -0.15905023 0.093004495 0.18064821 0.14245765 0.1804446
0.09352974 0.0948574 -0.2026181 0.06273386 0.22925042 0.010949356 0.08920708 -0.1705218
-0.19263805 0.21801122 0.24170887 0.05894847 0.1179524 0.025852289 -0.11803346 0.20690456
0.05856549 0.20887661 0.13787588 -0.11499288 -0.14440347 0.05645785 0.23142323 0.2581962
-0.21223888 0.005562055 0.18691956 0.07806867 -0.2411561 0.1075752 0.06064972 -0.07413183
-0.10209367 -0.13644843 -0.026033884 -0.047216393 -0.20079958 -0.0040981136 0.010569471 0.0084077185
0.21865714 0.14993553 -0.09221929 0.056246478 0.13814081 0.0028967184 0.12053597 -0.005882414
00000000: e3db 503e dc15 41bd 7752 b33d 516e d9bd
00000010: 4460 43be 80ed 69be 3365 753e 6ee3 23be
00000020: a51c 8b3c 2706 e53d 340b 22be d4e9 cf3c
00000030: 81fd 27bd 1f2d 6d3e 5f15 f2bc c63b 2bbe
00000040: 0a2b 2a3d 8263 1e3e dbd6 ff3a c2e6 2b3e
00000050: 5550 6d3e 3987 9e3c 0cd9 eebd 8363 68be
00000060: 0f8e 9b3c 5138 4e3c a2dc 043d f27c 2cbd
00000070: e573 67be a714 10bd 3a94 e73d dab0 32be
00000080: 13c0 86bd 2666 12bd 0517 1e3e 13aa fc3d
00000090: beea b33d 0cc9 c7bc 51fe 3a3e 6716 b5bd
000000a0: e1ea 433e dee7 23be 1474 613e 849e 203e
000000b0: 3934 7bbb 9e83 3d3c 234f dd3d c19e 0fbe
000000c0: a7b3 3e3d e2d0 a03d 714e 3bbe 56f5 dfbc
000000d0: e140 44bd 6a8e dd3d 950d dbbb db3f 553e
000000e0: 9290 d43d 5ee3 1f3d 3db9 593e 1ae8 5d3e
000000f0: 6ea7 37be 5ab6 263e 811e 913d a979 72be
00000100: 53ef 0b3e b898 263e 9a28 78be 97dd 3e3e
00000110: 84c1 2f3e 3ff5 6d3d 9d79 5d3e ce43 12be
00000120: efb6 d43d 742a 64be 63ad aa3c f0e5 0e3d
00000130: 703b 97bd cd58 1a3e 60ef 0dbe 3f5a 073e
00000140: 3f71 6f3e b41d f2bd b585 313e e1ff 4b3e
00000150: 1f23 1cbe d9cc 6b3c d0a2 093e 800c 623d
00000160: 8782 02bd 5b45 1e3e 3a09 163e 41fa 363d
00000170: 88ea 303e c42a 4bbe 32a9 1ebe cb8c 01be
00000180: c742 1d3e 1ee4 583d 5f2f d03d 626d 77be
00000190: bdd4 28be bcbd 553e c3e3 37bd 2abf a3bd
000001a0: 122b 413d acf8 ccbd d052 45bd a4be 36be
000001b0: d8a3 2c3e 8b0e 72be 6283 0d3e 7230 23bd
000001c0: dfac aabd 26e5 0bbb a1d2 3d3d 2fe4 a33d
000001d0: 66d4 003e 6a32 2dbe ac57 5bbe b552 08be
000001e0: e4f9 a6bd 5d3c 13bd 5161 32bd f8c2 f5bd
000001f0: e451 64be 7cbb 4c3e 4d1e d2bd ed97 e13d
00000200: 2d5d 6fbe da66 2e3e 461f 463d dc70 883d
00000210: 6b44 d0bc 1707 03be 141b 573e 01bf 44bd
00000220: 5cc2 9b3d b5fe 2f3c 7bf7 3d3e e398 533e
00000230: 2cf6 743d ea3f 243e 97ea d2bc 5cd0 d7bd
00000240: 9b56 78be f7db 753e b273 2a3e 14f1 2c3e
00000250: 2e17 1ebe 2524 733e cd4b 613e c8d0 54bd
00000260: 8278 67be 72f7 4d3e 007f 5ebe 3fe3 52be
00000270: feb7 243e 543d a1bd bb96 b0bd e3b0 203e
00000280: bfb0 453d 43fc f33c 9f35 65be fecb 0b3e
00000290: f3b6 3b3e ca07 92bd 43ba 17be 13d7 15be
000002a0: a229 3b3e 8815 20be 67e0 4dbd c5b4 1abd
000002b0: 3b95 3fbe a501 393e 9d6f 4abe 73be 41be
000002c0: b98f 7f3d 4c7d 7c3e 1953 e3bd a0c6 343e
000002d0: 2dcb 563e a0a6 fdbd 9a62 553e 2038 23be
000002e0: 18c7 09be a328 65be 6bc1 07be c6d7 83be
000002f0: 156b 62be 19ec 5e3e c945 313e fae2 d93d
00000300: 1667 2fbe c8ce bb3d af4d 0c3e 47fb 9e3d
00000310: 3625 f3bd 9951 9fbc 9213 f9bd 6a5e 713e
00000320: 7747 84bc b258 7cbc f345 0fbe 10de 22be
00000330: 2479 be3d d8fb 383e 6be0 113e 78c6 383e
00000340: 858c bf3d 9944 c23d 1f7b 4fbe 9c7a 803d
00000350: 9fc0 6a3e ed64 333c 34b2 b63d 449d 2ebe
00000360: e942 45be 553e 5f3e 8882 773e f373 713d
00000370: 0791 f13d 2ec8 d33c 87bb f1bd cade 533e
00000380: 5ee2 6f3d c0e3 553e 562f 0d3e 6381 ebbd
00000390: 81de 13be 5940 673d 36fa 6c3e 4b32 843e
000003a0: 2655 59be e641 b63b d767 3f3e 78e2 9f3d
000003b0: a0f1 76be 6350 dc3d d76b 783d 6ed2 97bd
000003c0: 7c16 d1bd 23b9 0bbe 0345 d5bc fa65 41bd
000003d0: 689e 4dbe 7849 86bb 932b 2d3c 87c0 093c
000003e0: a8e7 5f3e b388 193e 78dd bcbd b562 663d
000003f0: c974 0d3e dfd6 3d3b 90db f63d 44c1 c0bb

encoder.layers.0.key_embedding.bias f4 [16]
0.16312042 0.13955934 0.026405662 0.2167787 0.013990096 0.033643816 0.15245031 -0.19769733
0.12063458 -0.18218735 0.13604708 -0.09309865 0.06762879 -0.21274307 -0.020758647 -0.14785886
00000000: 0a09 273e a5e8 0e3e b050 d83c 3cfb 5d3e
00000010: b736 653c 19ce 093d ef1b 1c3e 2b71 4abe
00000020: 430f f73d 528f 3abe ed4f 0b3e 81aa bebd
00000030: f780 8a3d 52d9 59be 0a0e aabc 5068 17be

encoder.layers.0.value_embedding.weight f4 [16, 16]
-0.12360342 -0.19442545 -0.1636093 0.12751313 -0.21642537 -0.17461741 -0.22369865 0.005493279
0.11613346 -0.2430115 -0.18298332 0.09252856 0.17789707 -0.23589186 -0.13311441 0.13370822
-0.11238859 -0.22515498 -0.13683787 -0.23751916 -0.19201496 -0.13556054 0.21753334 0.12445534
0.20534283 0.13546915 0.24086274 -0.20931399 0.20139152 0.04948482 -0.030235082 0.18119414
-0.18748124 -0.23958215 0.058582846 0.07353857 0.13429306 0.20090663 0.22968091 -0.04286873
-0.099685155 -0.036266074 0.08244221 0.015607008 -0.20825998 0.11191989 0.20421138 0.0836057
0.050044864 -0.12893657 0.22153646 0.030608399 -0.027067002 0.22934791 0.22146875 -0.18308531
0.057830483 -0.060508244 0.053760316 -0.12842688 0.0032234958 -0.13088003 0.11805372 -0.010728863
-0.092774756 -0.094566144 0.042057116 0.09209272 0.022066277 -0.028624563 0.111009054 0.039228808
-0.14118116 0.10577777 -0.19529626 0.056479007 0.007986211 0.22991182 -0.18197913 0.11431885
-0.18782131 -0.14706598 0.22669555 0.12297506 -0.20786093 0.04573257 0.073459916 0.11535122
0.15258504 -0.13215728 0.21905619 -0.2213625 -0.23253103 0.15698734 -0.005887379 -0.10631715
0.22838496 0.15756255 0.2028392 0.16612616 0.023974976 0.17470305 0.12826097 -0.09211115
-0.041154206 -0.0106974 -0.06326897 -0.1827003 -0.07334579 0.24155581 -0.20754062 -0.007698901
0.12272863 -0.12466996 0.104996726 -0.094398454 0.21948718 0.109971195 0.0162973 -0.20380309
-0.2213719 0.20038557 0.038587056 0.17059132 0.10422849 0.15174554 -0.07301413 -0.2032984
0.21690291 -0.13626713 0.22843798 0.10670146 -0.026724286 -0.005758102 0.030929763 -0.2230277
0.04273367 0.18228972 0.04619913 0.20346466 -0.18597339 0.25110552 -0.18990007 -0.24599022
0.12213985 -0.17317256 -0.19979745 0.22715256 0.06917649 -0.068055175 0.23973519 0.2418048
0.018744076 -0.00900802 0.17468776 0.20932947 0.0010784264 0.22606707 -0.04726207 -0.08323193
0.18483992 0.18458588 -0.032611422 0.15255643 0.11484366 0.14291078 0.07996707 -0.1224547
-0.17246437 0.050382636 0.077059686 0.122933045 -0.18807073 -0.07159293 0.04778423 0.15009959
0.13834442 0.06564882 0.14301404 0.033902474 -0.1240705 -0.10782441 -0.14466631 0.119606234
-0.19225526 -0.19669005 -0.1735376 0.15236767 -0.11062114 0.07648695 -0.0024410607 0.068142876
-0.14203092 -0.025599264 -0.21541697 0.22467898 -0.0361047 0.2182591 0.17128417 -0.023414297
-0.0694295 -0.037962325 -0.0897187 0.021817632 0.06602881 -0.05914506 0.19158402 0.13373083
0.21523872 0.14682083 0.018367121 -0.03457256 0.107566796 -0.1749467 -0.19682172 -0.24945562
0.23660949 0.24441034 0.15602812 -0.18731207 -0.13792579 0.078581326 0.075324155 -0.14136173
0.0015573915 -0.055500675 0.07499898 0.09442787 -0.24548365 0.13931362 -0.04642745 -0.15831868
0.101233795 0.17413731 -0.12049986 0.2425202 -0.03525119 0.24358785 -0.022851812 -0.17315063
-0.15227751 -0.10745185 0.1026376 -0.0048085153 0.06917293 0.10262754 -0.06271807 -0.10911976
-0.21809518 -0.05460794 -0.1541936 -0.07955113 -0.056963228 -0.08134437 0.22242081 0.12456773
00000000: ca23 fdbd 7717 47be 3289 27be cd92 023e
00000010: 9d9e 5dbe e8ce 32be 4211 65be f700 b43b
00000020: 61d7 ed3d 02d8 78be fb5f 3bbe 9d7f bd3d
00000030: a62a 363e a38d 71be 254f 08be cfea 083e
00000040: fd2b e6bd 078f 66be 3a1f 0cbe 3938 73be
00000050: 929f 44be 62d0 0abe 0fc1 5e3e 71e2 fe3d
00000060: 6445 523e 6db8 0a3e b9a4 763e 6856 56be
00000070: 9439 4e3e 98b0 4a3d 90af f7bc f58a 393e
00000080: 15fb 3fbe 0655 75be 91f4 6f3d 649b 963d
00000090: 1f84 093e 78ba 4d3e 7931 6b3e 1f97 2fbd
000000a0: bb27 ccbd bc8b 14bd 76d7 a83d 89b4 7f3c
000000b0: 1b42 55be 4136 e53d ca1c 513e 7739 ab3d
000000c0: d8fb 4c3d f307 04be 74da 623e 77be fa3c
000000d0: 9ebb ddbc 2eda 6a3e b4c8 623e b77a 3bbe
000000e0: a8df 6c3d 7ed7 77bd c733 5c3d 5682 03be
000000f0: 4941 533b 6a05 06be 26c6 f13d 1dc8 2fbc
00000100: b100 bebd e5ab c1bd 1544 2c3d 1c9b bc3d
00000110: 56c4 b43c 0f7e eabc b758 e33d 63ae 203d
00000120: cb91 10be 04a2 d83d befb 47be 8856 673d
00000130: 99d8 023c 016e 6b3e bd58 3abe 0020 ea3d
00000140: 3b54 40be 7798 16be e122 683e 59da fb3d
00000150: 7fd9 54be 1352 3b3d 2772 963d 433d ec3d
00000160: 413f 1c3e 3d54 07be 4450 603e daac 62be
00000170: 9d1c 6ebe 4ac1 203e eaea c0bb cebc d9bd
00000180: bfdd 693e 1458 213e 14b5 4f3e fa1c 2a3e
00000190: 2b67 c43c 5be5 323e d856 033e c5a4 bcbd
000001a0: 5091 28bd 2644 2fbc 2993 81bd ca15 3bbe
000001b0: 5136 96bd 685a 773e 8785 54be 1047 fcbb
000001c0: 2659 fb3d f752 ffbd 8608 d73d fa53 c1bd
000001d0: 3fc1 603e 9438 e13d ea81 853c c2b1 50be
000001e0: 51af 62be e031 4d3e 760d 1e3d 7eaf 2e3e
000001f0: bf75 d53d 2f63 1b3e 6f88 95bd 752d 50be
00000200: cc1b 5e3e 9c89 0bbe a5eb 693e 4c86 da3d
00000210: e4ec dabc 76ae bcbb 6a60 fd3c 6061 64be
00000220: 8009 2f3d 28aa 3a3e 4d3b 3d3d 0a59 503e
00000230: cf6f 3ebe e790 803e 2a75 42be dce4 7bbe
00000240: 7524 fa3d 2654 31be b497 4cbe ae9a 683e
00000250: 67ac 8d3d 8360 8bbd 247d 753e ad9b 773e
00000260: 2d8d 993c 6096 13bc 59e1 323e 775a 563e
00000270: fc59 8d3a 207e 673e df95 41bd 8175 aabd
00000280: ad46 3d3e 1504 3d3e 8e93 05bd c137 1c3e
00000290: 2733 eb3d 3457 123e c6c5 a33d 88c9 fabd
000002a0: 809a 30be 065e 4e3d 78d1 9d3d 52c4 fb3d
000002b0: 9d95 40be 509f 92bd 66b9 433d b5b3 193e
000002c0: 29aa 0d3e e372 863d 4672 123e 52dd 0a3d
000002d0: ad18 febd 0bd3 dcbd 6823 14be 1df4 f43d
000002e0: 90de 44be 1e69 49be d7b3 31be 4506 1c3e
000002f0: 568d e2bd 31a5 9c3d 34fa 1fbb 7e8e 8b3d
00000300: 8e70 11be 8cb5 d1bc 4496 5cbe 3f12 663e
00000310: 86e2 13bd 507f 5f3e 1e65 2f3e 57cf bfbc
00000320: 0e31 8ebd 627e 1bbd 70be b7bd e4ba b23c
00000330: 1d3a 873d 1742 72bd 9a2e 443e bcf0 083e
00000340: 8a67 5c3e 3358 163e a576 963c f59b 0dbd
00000350: fb4b dc3d 3a25 33be a28b 49be 4b71 7fbe
00000360: c249 723e b446 7a3e d6c5 1f3e bcce 3fbe
00000370: 6b3c 0dbe 3fef a03d 8d43 9a3d 21c1 10be
00000380: 6321 cc3a ad54 63bd 1199 993d 6663 c13d
00000390: 1160 7bbe 3ba8 0e3e b62a 3ebd 4b1e 22be
000003a0: aa53 cf3d 0d51 323e a1c8 f6bd 3757 783e
000003b0: 8d63 10bd 186f 793e b933 bbbc 664e 31be
000003c0: a3ee 1bbe b70f dcbd a933 d23d c090 9dbb
000003d0: 8aaa 8d3d 632e d23d 5572 80bd 2e7a dfbd
000003e0: 5854 5fbe 93ac 5fbd ede4 1dbe b4eb a2bd
000003f0: 4652 69bd e197 a6bd 48c2 633e 5e1d ff3d

encoder.layers.0.value_embedding.bias f4 [16]
-0.008812832 -0.014361211 0.23931119 0.23077102 0.0047498494 0.26125363 -0.2455574 0.10119333
-0.11130957 -0.14698675 -0.08563666 0.14703484 -0.029851831 -0.14040428 -0.22087553 -0.23441385
00000000: b263 10bc 494b 6bbc fe0d 753e 3d4f 6c3e
00000010: a0a4 9b3b 09c3 853e 6673 7bbe 733e cf3d
00000020: 46f6 e3bd b283 16be 4662 afbd 4d90 163e
00000030: d48b f4bc 24c6 0fbe 322d 62be 2f0a 70be

encoder.layers.0.norm_attn.weight f4 [16]
0.99458104 0.9926147 1.0046586 1.0121186 1.0043582 0.983377 1.003918 0.9935893
0.9967385 1.0078068 1.0163802 1.0109205 1.0078102 1.0064107 1.0071744 0.98824495
00000000: dd9c 7e3f ff1b 7e3f a798 803f 1a8d 813f
00000010: cf8e 803f 98be 7b3f 6380 803f de5b 7e3f
00000020: 412a 7f3f d0ff 803f bf18 823f d865 813f
00000030: edff 803f 11d2 803f 17eb 803f 9ffd 7c3f

encoder.layers.0.norm_attn.bias f4 [16]
-0.010354509 -0.007185457 -0.011451473 -0.013888325 0.00076937856 0.011459551 0.015739514 0.012836147
0.014144557 -0.008767791 0.0063255895 -0.012489156 0.011180244 -0.0055276817 -0.013414671 0.0051693656
00000000: f5a5 29bc fb73 ebbb f69e 3bbc db8b 63bc
00000010: 1fb0 493a d7c0 3b3c 27f0 803c b44e 523c
00000020: 92be 673c c8a6 0fbc e446 cf3b 519f 4cbc
00000030: 582d 373c 8e21 b5bb 35c9 5bbc c863 a93b

encoder.layers.0.norm_attn.running_mean f4 [16]
-5.0092096 3.9151466 -14.945664 -7.3688927 -0.8537833 -3.5009663 -6.3816013 13.9475765
-16.945301 5.803708 -1.8308572 16.33511 7.366472 -31.172276 -10.901872 -3.7944436
00000000: 724b a0c0 c391 7a40 7121 6fc1 f8cd ebc0
00000010: 8b91 5abf d50f 60c0 1436 ccc0 4629 5f41
00000020: fa8f 87c1 fab7 b940 8759 eabf 4eae 8241
00000030: 23ba eb40 d260 f9c1 116e 2ec1 2ad8 72c0

encoder.layers.0.norm_attn.running_var f4 [16]
16.301283 3.6451812 2.6994174 10.358927 8.184349 3.5956075 16.38095 6.3836236
16.300941 9.516839 2.0183737 4.914138 8.612624 31.638674 4.4530807 2.6868596
00000000: 0769 8241 a64a 6940 41c3 2c40 2abe 2541
00000010: 18f3 0241 6f1e 6640 300c 8341 a546 cc40
00000020: 5468 8241 f944 1841 092d 0140 9e40 9d40
00000030: 4fcd 0941 011c fd41 a37f 8e40 82f5 2b40

encoder.layers.0.norm_ffn.weight f4 [16]
0.9999335 1.0052687 0.99894285 1.0061944 1.0018349 1.0118822 0.99835783 0.9992289
1.0043039 0.99044263 0.98349863 0.99337363 0.9975846 0.99917185 0.9899671 0.9994054
00000000: a4fb 7f3f a5ac 803f b8ba 7f3f faca 803f
00000010: 203c 803f 5b85 813f 6194 7f3f 77cd 7f3f
00000020: 088d 803f a68d 7d3f 91c6 7b3f bc4d 7e3f
00000030: b461 7f3f bac9 7f3f 7c6e 7d3f 08d9 7f3f

encoder.layers.0.norm_ffn.bias f4 [16]
-0.009158341 0.004762061 -0.0015035791 -0.00015231018 0.00052753725 -0.00700673 -0.0029644358 -0.004898779
0.004409622 0.0015258706 -0.0019797063 -0.005124742 -0.001159162 -0.00095863565 0.004419721 -0.0011975586
00000000: de0c 16bc 100b 9c3b be13 c5ba 74b5 1fb9
00000010: 6d4a 0a3a b698 e5bb fb46 42bb f085 a0bb
00000020: 977e 903b b9ff c73a f6bd 01bb 74ed a7bb
00000030: 06ef 97ba f34c 7bba 4fd3 903b 66f7 9cba

encoder.layers.0.norm_ffn.running_mean f4 [16]
0.17064598 0.057833187 -0.064149335 0.19424787 0.045237254 0.14544286 0.11190123 -0.030484056
0.022154013 -0.24746205 0.037288282 0.032643653 0.022234086 0.0064105964 0.11704974 0.07513375
00000000: d2bd 2e3e 7ee2 6c3d ba60 83bd eae8 463e
00000010: b34a 393d f9ee 143e 792c e53d b3b9 f9bc
00000020: 557c b53c b166 7dbe 99bb 183d 5ab5 053d
00000030: 4224 b63c fb0f d23b c6b7 ef3d b9df 993d

encoder.layers.0.norm_ffn.running_var f4 [16]
1.0193372 1.0575242 1.0023427 1.120011 1.2294294 1.1768701 1.0740594 1.0322438
1.0977056 1.0335528 1.0610421 1.0420876 1.2457404 1.0231729 0.98250556 0.99663705
00000000: a479 823f f45c 873f c44c 803f 855c 8f3f
00000010: f15d 9d3f aea3 963f c77a 893f 9120 843f
00000020: 9e81 8c3f 754b 843f 3ad0 873f 2063 853f
00000030: 6c74 9f3f 54f7 823f 7c85 7b3f 9b23 7f3f

encoder.layers.0.ffn.0.weight f4 [64, 16]
-0.120369285 -0.10414609 0.13624316 -0.23828322 0.08634104 -0.18075281 0.22266479 0.14245409
-0.1297138 0.15466103 -0.23378572 -0.14431764 -0.1557512 0.06762072 0.23399948 -0.10404781
0.19971873 0.17853364 0.015904982 0.0042271577 -0.084708504 -0.23555893 -0.14035684 -0.20817277
-0.10330078 0.015782706 0.21106042 0.09108035 0.18624362 -0.09031097 0.0062652803 0.15469189
-0.21564746 -0.03091556 0.13568562 -0.12222145 -0.15227866 0.22512083 -0.1512417 0.17046012
-0.10291087 -0.1280086 -0.005039774 -0.18648618 0.21122588 -0.08940177 -0.00011466763 0.13635734
-0.017052159 -0.0089939 0.1367424 -0.2234226 0.16464937 0.15742123 -0.08169953 -0.18857111
0.23868074 -0.05749502 0.024496114 0.25281188 -0.24019489 -0.10311164 -0.03493025 -0.14348799
0.13490316 0.21654655 -0.22623424 -0.035233013 -0.16799584 0.2319994 0.1763836 -0.10180739
-0.054061532 0.19371638 -0.19506462 -0.2553008 -0.21853715 0.009642888 -0.14857247 -0.21458173
-0.23487307 -0.19779801 -0.14769757 0.18897206 0.023357308 0.07845141 -0.21453324 -0.09088106
0.025777958 -0.10331838 -0.19445585 -0.23762421 0.19094937 -0.23073119 0.13533758 0.19965783
0.13014574 0.008529426 0.062267907 0.028765712 -0.117619425 0.16571935 -0.1290624 0.1543296
-0.19710474 -0.010335746 -0.08410329 -0.19918649 0.14109592 -0.2475111 0.0018807476 0.10470709
-0.1343698 -0.030561525 -0.2523564 0.2004548 -0.09298221 0.17287749 0.02623469 -0.1302731
0.10562586 -0.22626124 -0.050944187 0.14163566 -0.07398231 -0.07618715 0.11716956 0.21704613
0.22488852 0.22524427 -0.21323174 -0.2345253 -0.035283793 -0.117253155 -0.051394515 0.037455052
-0.049752016 0.12959729 0.18084767 0.18973002 -0.027108995 -0.050423034 -0.17092729 0.08524298
0.05808172 0.03799446 -0.10774899 -0.05565028 0.101693176 -0.042809457 -0.053181 0.17134029
-0.026475847 -0.14492483 -0.073587686 -0.16345695 -0.09514844 0.08031248 -0.13939288 0.1450225
-0.004260909 -0.087039545 -0.07424401 -0.19862884 0.049801733 -0.105543114 -0.23544173 0.07336404
-0.22989364 0.2585097 0.024220064 0.042497516 0.060637478 -0.21661514 -0.059066273 0.19446851
0.15405162 -0.15492484 -0.22952496 0.2454755 0.06342634 0.0232571 -0.11937724 0.18152101
-0.18439223 -0.02518877 0.113159366 0.214127 0.11949289 -0.25296178 -0.015016407 -0.21563599
-0.02553043 0.10870435 0.099037774 0.05185031 0.21254955 0.11605089 -0.13153723 0.24852444
0.1659194 0.0021706554 0.16539386 0.21297128 0.07753716 0.10759745 -0.24511494 -0.08338013
-0.19479336 -0.15220591 0.15463857 0.06414347 -0.037055448 -0.21728101 -0.17121834 0.031144904
0.04955794 -0.11497234 -0.003542833 0.10818841 0.14712758 0.003479931 0.21665189 0.123517096
0.1645763 -0.065557696 -0.07063192 -0.105828926 0.25557804 -0.11989729 -0.042327844 -0.06422818
0.19745548 0.180908 -0.18086073 0.06546773 0.13425486 -0.1134526 -0.08714399 0.121088654
-0.07137266 0.10704305 -0.22100917 -0.0691992 0.17687549 0.030818015 0.20191196 -0.05143282
-0.0351869 -0.23596485 0.23448023 0.24209157 -0.06969951 0.044954218 0.24855264 0.10369947
00000000: 2c84 f6bd 8c4a d5bd 5483 0b3e 8400 74be
00000010: 92d3 b03d 4417 39be 3d02 643e 7cdf 113e
00000020: b2d3 04be 765f 1e3e 8665 6fbe 01c8 13be
00000030: 3e7d 1fbe bb7c 8a3d 8f9d 6f3e 0517 d5bd
00000040: 1183 4c3e 86d1 363e 2a4b 823c f883 8a3b
00000050: a77b adbd 5c36 71be b4b9 0fbe 3e2b 55be
00000060: 5c8f d3bd bc4a 813c 3920 583e 5688 ba3d
00000070: a6b6 3e3e f5f4 b8bd fb4c cd3b 8d67 1e3e
00000080: b0d2 5cbe a142 fdbc 2cf1 0a3e 3d4f fabd
00000090: f0ee 1bbe 1386 663e 1bdf 1abe 198d 2e3e
000000a0: efc2 d2bd b014 03be b024 a5bb 3cf6 3ebe
000000b0: 994b 583e 4618 b7bd b779 f0b8 42a1 0b3e
000000c0: f8b0 8bbc 275b 13bc 3306 0c3e e5c8 64be
000000d0: d899 283e 0833 213e 1552 a7bd c918 41be
000000e0: b968 743e e67f 6bbd 13ac c83c 8f70 813e
000000f0: a6f5 75be 322c d3bd 0613 0fbd 84ee 12be
00000100: 0e24 0a3e 61be 5d3e f3a9 67be 7e50 10bd
00000110: 1a07 2cbe 4091 6d3e e79d 343e 6580 d0bd
00000120: a06f 5dbd 965d 463e 05bf 47be c9b6 82be
00000130: 34c8 5fbe 34fd 1d3c 6223 18be 50bb 5bbe
00000140: 9182 70be 908b 4abe 083e 17be e481 413e
00000150: d357 bf3c 22ab a03d 9aae 5bbe d91f babd
00000160: 4c2c d33c 9698 d3bd 6f1f 47be c353 73be
00000170: 3b88 433e cc44 6cbe ef95 0a3e 1a73 4c3e
00000180: ed44 053e 01bf 0b3c a20c 7f3d 12a6 eb3c
00000190: 74e2 f0bd 55b2 293e ef28 04be 9408 1e3e
000001a0: d3d5 49be 4357 29bc 593e acbd 8bf7 4bbe
000001b0: 737b 103e 8d73 7dbe 6b83 f63a ac70 d63d
000001c0: 3d98 09be 2a5c fabc dc34 81be 0644 4d3e
000001d0: 756d bebd cc06 313e 22ea d63c 5066 05be
000001e0: 5f52 d83d 07b1 67be daaa 50bd f008 113e
000001f0: 0a84 97bd 0208 9cbd 98f6 ef3d 5741 5e3e
00000200: 2d49 663e 6fa6 663e 6c59 5abe 6627 70be
00000210: bd85 10bd 6c22 f0bd 0e83 52bd 786a 193d
00000220: c5c8 4bbd 27b5 043e 2230 393e 9648 423e
00000230: af13 debc 6288 4ebd 9007 2fbe df93 ae3d
00000240: 19e7 6d3d 14a0 1b3d 81ab dcbd 8cf1 63bd
00000250: 8344 d03d f858 2fbd 52d4 59bd d473 2f3e
00000260: e0e3 d8bc 2d67 14be 24b5 96bd 4261 27be
00000270: 2fdd c2bd df7a a43d 02bd 0ebe c780 143e
00000280: 189f 8bbb ca41 b2bd 3e0d 98bd 5c65 4bbe
00000290: e7fc 4b3d fd26 d8bd a317 71be e33f 963d
000002a0: 3d69 6bbe 625b 843e 2869 c63c e011 2e3d
000002b0: 015f 783d 5cd0 5dbe 7aef 71bd c122 473e
000002c0: b5bf 1d3e 9ea4 1ebe 9708 6bbe ee5d 7b3e
000002d0: abe5 813d ac85 be3c 0e7c f4bd a5e0 393e
000002e0: 51d1 3cbe ae58 cebc 19c0 e73d 1c44 5b3e
000002f0: b0b8 f43d 3584 81be 6007 76bc aecf 5cbe
00000300: 3125 d1bc 63a0 de3d 51d4 ca3d fe60 543d
00000310: 97a6 593e 17ac ed3d b2b1 06be 317d 7e3e
00000320: c6e6 293e 8e41 0e3b 025d 293e 2515 5a3e
00000330: cdcb 9e3d 0d5c dc3d 69ff 7abe 34c3 aabd
00000340: e977 47be dedb 1bbe 9359 1e3e a75d 833d
00000350: 74c7 17bd ea7e 5ebe dc53 2fbe 9923 ff3c
00000360: 44fd 4a3d 9e76 ebbd e02e 68bb e391 dd3d
00000370: 9da8 163e 8e0f 643b fed9 5d3e 88f6 fc3d
00000380: b186 283e 1d43 86bd 78a7 90bd d6bc d8bd
00000390: 20db 823e b68c f5bd f65f 2dbd 108a 83bd
000003a0: c531 4a3e f23f 393e 8e33 39be f213 863d
000003b0: 1b7a 093e d659 e8bd 8c78 b2bd 54fd f73d
000003c0: d42b 92bd 6339 db3d 3a50 62be 4fb8 8dbd
000003d0: d91e 353e 1076 fc3c 02c2 4e3e 38ab 52bd
000003e0: 2420 10bd c5a0 71be 961b 703e dae6 773e
000003f0: 9ebe 8ebd ea21 383d 9584 7e3e 6360 d43d

encoder.layers.0.ffn.0.bias f4 [64]
-0.0024701748 -0.23927103 0.10259604 0.088331655 -0.03934731 -0.18562718 0.0077022645 0.25751647
-0.124108486 -0.14814685 0.095437266 0.121358655 -0.20390368 -0.18132319 0.09367611 0.06430307
-0.19706418 -0.22056217 -0.16016658 0.057789385 -0.11516406 -0.07459843 0.07946448 -0.21954471
-0.15211642 0.2310731 -0.09744219 -0.17297405 -0.07257288 0.17476921 0.021203075 0.16142225
0.028631745 -0.07844528 -0.035034977 0.13312282 -0.06613709 0.19506165 0.0012693239 -0.049236596
-0.08653901 -0.15366632 -0.20672275 0.010251349 -0.03526682 0.17165257 0.036427006 0.0009757923
-0.19665481 -0.152965 0.04447761 -0.15437044 0.045294214 -0.12937781 -0.17063734 -0.12410801
0.21287043 -0.035747435 -0.060079396 0.099443436 -0.12706797 -0.048058722 0.23782484 0.04208409
00000000: a8e2 21bb 7703 75be df1d d23d 3ae7 b43d
00000010: a52a 21bd 0d15 3ebe 4763 fc3b 33d9 833e
00000020: 972c febd cfb3 17be 9d74 c33d e38a f83d
00000030: 20cc 50be c9ac 39be 43d9 bf3d 54b1 833d
00000040: 31cb 49be 0ddb 61be b502 24be 90b4 6c3d
00000050: 22db ebbd 10c7 98bd 46be a23d 54d0 60be
00000060: 68c4 1bbe 6d9e 6c3e c58f c7bd 1c20 31be
00000070: 17a1 94bd b3f6 323e 12b2 ad3c e04b 253e
00000080: 1f8d ea3c eba7 a0bd d680 0fbd 5951 083e
00000090: e272 87bd 3ebe 473e 715f a63a 50ac 49bd
000000a0: 5d3b b1bd b45a 1dbe 21af 53be 46f5 273c
000000b0: f173 10bd b1c5 2f3e 7c34 153d 50cc 7f3a
000000c0: e15f 49be dba2 1cbe 282e 363d 4913 1ebe
000000d0: 6d86 393d 9e7b 04be 8ebb 2ebe 572c febd
000000e0: b5fa 593e e76b 12bd d015 76bd 00a9 cb3d
000000f0: 1b1e 02be 39d9 44bd 5b88 733e 5e60 2c3d
