TST/model.pth (torch, 68310 bytes, 68 tensors)

positional_encoder f4 [24, 16]
0.70232576 -0.47830623 -0.58663565 -0.35776642 1.0259655 -1.6243227 0.22231056 0.6846736
0.98017263 0.09188643 -0.39738217 0.54819757 -0.38509303 -1.1887108 0.24587622 -0.55946577
-0.23312289 0.66751176 -0.4776045 1.4866577 0.17201947 0.88103473 -0.39829153 1.7926092
-1.0055286 -0.34770048 -1.0520515 0.9500621 -0.11004479 1.6107733 -1.2884107 -2.0109768
0.6053456 0.36457628 -0.9553467 -0.62656623 -0.77614975 -0.8755377 -0.052782472 -2.2598176
-0.73318994 0.41717747 -0.016815202 0.40772098 -0.19783804 -1.2175417 -2.1673753 0.68982834
1.4237827 0.40790135 1.402482 -0.6661654 0.301291 -1.9793948 0.692793 0.5398149
0.51409787 -1.4613098 -0.6524021 -0.9048295 -0.29359275 0.0052487925 -0.41671667 0.93183106
2.2711976 -0.9253603 0.9042099 -0.8871973 -0.82767063 0.031887885 -0.39029497 1.022651
-0.12651263 0.71312535 2.537342 -1.1954306 0.026403725 0.025081221 -1.2727708 -1.0690216
-0.28804925 -1.2073144 0.2737323 -0.33625987 1.4004838 -0.50565964 -0.07340399 -0.119273156
1.1962267 0.9690445 0.90137696 0.8075008 2.1146908 0.7420898 -2.047768 -1.6320025
-1.6248069 0.24187385 -0.5987301 0.22701333 1.573469 1.0220608 -0.101542704 0.25143275
-0.54365784 -2.6762924 -1.3772867 1.819998 -0.81623155 -1.5613674 -0.933577 -0.95190406
-0.71452904 0.73704547 -0.67824954 0.3891962 -0.80824757 -1.0972384 0.3177987 1.2709671
-0.22178887 -1.1693516 -0.4530176 -0.3734025 0.94209164 -0.2889318 0.03633355 0.73621035
-0.18204041 0.5322024 -0.15042073 0.010966475 1.4460227 -1.8376182 -0.643391 0.5599083
0.53605366 0.06417093 0.73110485 0.99132836 0.63242674 0.07301086 -0.09089178 0.35378045
0.08154638 -0.07208764 -0.25952166 0.1458853 -0.56052375 -1.0434253 0.2069786 0.049477607
0.7878115 0.99841017 1.0214704 -1.0151502 -0.39558816 1.1676451 0.59460187 -0.38978913
1.0631044 -0.7879123 1.0824559 -0.8498149 -0.9827563 -1.9321674 1.7417116 -0.12262589
-0.21712747 -1.5442679 -0.41297534 -1.0127639 0.24605352 0.58384126 -2.4773016 -0.8037858
-0.8510962 -0.80644894 0.3277021 -1.70019 0.07099244 -0.7121205 1.4876628 1.449748
0.6811716 -0.29665384 -0.8034596 0.17787151 -0.17758243 2.3309703 0.7691642 -0.28153664
-0.3694933 -0.35181615 1.0270813 -0.40819308 -0.33001813 2.2836392 1.3052663 -0.6385806
1.3100207 1.6778148 1.2232751 0.8611574 -1.5481911 1.1088274 -0.069006704 1.9651796
-0.71042776 0.80040324 0.3186542 -0.2176491 -1.1409967 -0.46607798 0.99525213 -0.016600737
0.060651764 -0.8088319 -0.55210644 1.0391414 -0.29051006 -1.0940912 -1.1522354 0.056736052
-2.7071526 -1.4211957 -0.39931077 -2.0101082 -0.95954335 -0.61237806 -0.3298845 -1.4196006
0.40164933 -0.7510777 0.258914 -1.3658069 0.7292741 -0.18234888 0.14126085 -0.30484512
0.6307493 -0.6324927 0.2848331 0.48408815 0.88512444 0.20531255 -0.24703465 -0.028114753
1.3567084 1.2886494 2.1747305 -0.22148313 -0.35540962 -1.3660959 -1.2176789 0.692526
00000000: 9fcb 333f 8ee4 f4be c12d 16bf 292d b7be
00000010: d652 833f cee9 cfbf 61a5 633e c546 2f3f
00000020: 98ec 7a3f f42e bc3d ad75 cbbe ad56 0c3f
00000030: ea2a c5be ad27 98bf fac6 7b3e 2639 0fbf
00000040: c4b7 6ebe 0de2 2a3f 9488 f4be cd4a be3f
00000050: df25 303e 7e8b 613f deec cbbe 3874 e53f
00000060: 29b5 80bf cc05 b2be a0a9 86bf 4537 733f
00000070: 2a5f e1bd d22d ce3f a4ea a4bf d8b3 00c0
00000080: eef7 1a3f bea9 ba3e 9a91 74bf a566 20bf
00000090: c0b1 46bf 3d23 60bf 6f32 58bd daa0 10c0
000000a0: 56b2 3bbf 4998 d53e 09c0 89bc cec0 d03e
000000b0: 0e96 4abe 68d8 9bbf 47b6 0ac0 9798 303f
000000c0: 833e b63f 72d8 d03e 8884 b33f d189 2abf
000000d0: d042 9a3e cf5c fdbf e25a 313f 4f31 0a3f
000000e0: eb9b 033f 330c bbbf d303 27bf e8a2 67bf
000000f0: ca51 96be 10fe ab3b e35b d5be 7b8c 6e3f
00000100: 4d5b 1140 6ae4 6cbf 4d7a 673f 5d1f 63bf
00000110: 39e2 53bf df9c 023d bed4 c7be 3ae6 823f
00000120: 878c 01be 628f 363f d063 2240 df03 99bf
00000130: a04c d83c 2277 cd3c 27ea a2bf b3d5 88bf
00000140: 317b 93be 4789 9abf a426 8c3e 412a acbe
00000150: 0e43 b33f e972 01bf d554 96bd 7c45 f4bd
00000160: f51d 993f 4d13 783f a4c0 663f 5fb8 4e3f
00000170: 1857 0740 99f9 3d3f a20e 03c0 75e5 d0bf
00000180: acf9 cfbf c7ad 773e 6046 19bf 2f76 683e
00000190: 6f67 c93f e3d2 823f 9ff5 cfbd cbbb 803e
000001a0: 292d 0bbf 6048 2bc0 ee4a b0bf b2f5 e83f
000001b0: 8df4 50bf e3da c7bf e7fe 6ebf fcaf 73bf
000001c0: 60eb 36bf 03af 3c3f c3a1 2dbf b944 c73e
000001d0: 50e9 4ebf 4f72 8cbf 83b6 a23e 0daf a23f
000001e0: 9f1c 63be 50ad 95bf ecf1 e7be 9d2e bfbe
000001f0: eb2c 713f deee 93be 7dd2 143d 4878 3c3f
00000200: cd68 3abe 6b3e 083f e407 1abe bbac 333c
00000210: 4617 b93f 1337 ebbf 46b5 24bf 2656 0f3f
00000220: d03a 093f 0c6c 833d b029 3b3f b2c7 7d3f
00000230: b8e6 213f b886 953d 7825 babd b622 b53e
00000240: ca01 a73d afa2 93bd 06e0 84be f562 153e
00000250: 7c7e 0fbf f68e 85bf 33f2 533e 08a9 4a3d
00000260: 04ae 493f cf97 7f3f 8bbf 823f 71f0 81bf
00000270: 888a cabe 6575 953f d437 183f 7192 c7be
00000280: ce13 883f 9fb4 49bf ea8d 8a3f 788d 59bf
00000290: eb95 7bbf 4351 f7bf 68f0 de3f 4823 fbbd
000002a0: aa56 5ebe 92aa c5bf 8171 d3be 3fa2 81bf
000002b0: 74f5 7b3e 9f76 153f 1c8c 1ec0 e8c4 4dbf
000002c0: 71e1 59bf 7073 4ebf 92c8 a73e d39f d9bf
000002d0: 7c64 913d 874d 36bf bc6b be3f 5891 b93f
000002e0: 4361 2e3f 03e3 97be 87af 4dbf f323 363e
000002f0: 2bd8 35be 9e2e 1540 f2e7 443f 9225 90be
00000300: 3a2e bdbe 3f21 b4be 6677 833f affe d0be
00000310: 23f8 a8be 2527 1240 f712 a73f 057a 23bf
00000320: c2ae a73f a3c2 d63f 4794 9c3f d074 5c3f
00000330: 202b c6bf 0eee 8d3f 6353 8dbd 018b fb3f
00000340: 98de 35bf 3ae7 4c3f a526 a33e 68df 5ebe
00000350: 2e0c 92bf c6a1 eebe d8c8 7e3f 45fe 87bc
00000360: fc6d 783d 9b0f 4fbf d956 0dbf 9602 853f
00000370: bcbd 94be 2e0b 8cbf 737c 93bf 1064 683d
00000380: fd41 2dc0 bee9 b5bf 7672 ccbe 9da5 00c0
00000390: a2a4 75bf cfc4 1cbf 9fe6 a8be 79b5 b5bf
000003a0: fba4 cd3e a146 40bf 6090 843e c3d2 aebf
000003b0: b5b1 3a3f aab9 3abe afa6 103e a914 9cbe
000003c0: c978 213f 0beb 21bf a5d5 913e 67da f73e
000003d0: 8497 623f 743d 523e a7f6 7cbe e950 e6bc
000003e0: 9fa8 ad3f 77f2 a43f c92e 0b40 79cc 62be
000003f0: 40f8 b5be 3bdc aebf e7dc 9bbf 6249 313f

embedding_projection.weight f4 [16, 6]
0.2564741 0.25042325 -0.3484793 -0.28560716 0.38997006 0.35822508 0.31212905 0.087987036
-0.12717798 0.16298951 -0.28406778 0.06897998 0.19153334 -0.28662637 -0.17117599 -0.3752287
-0.047270596 0.29315472 -0.27122447 -0.12848248 -0.2636177 0.3220002 -0.375754 0.28774717
0.01433663 -0.22242063 -0.40151146 0.123464696 -0.247832 0.01745614 -0.33478534 0.32198793
-0.012944853 0.12126062 -0.12115535 0.3871294 -0.07103852 0.11812708 -0.25185475 -0.20687512
0.21799581 -0.1648916 -0.116212964 -0.2014143 0.2533335 -0.25842652 -0.3017539 -0.033186257
0.18821672 0.31670493 -0.016479092 -0.31451976 0.30022332 -0.21074511 -0.024274945 0.06600971
0.083651245 0.31279063 0.09707041 0.058546957 -0.40436685 0.3988451 0.3931908 -0.039536115
-0.23793869 -0.058125544 -0.13724706 -0.14794226 -0.247005 0.026584556 -0.0028441926 -0.3866552
-0.01491778 0.25988904 -0.17726347 0.35837734 0.2688016 -0.015404522 -0.20322935 0.37707508
-0.21169373 0.13928565 0.33603778 0.34757423 -0.042968426 -0.12048299 -0.40494326 0.2415288
-0.27406564 0.29639205 0.25235906 -0.15697339 0.2447523 -0.1825244 0.17380248 0.2571984
00000000: 9350 833e 7a37 803e e16b b2be 1a3b 92be
00000010: 28aa c73e 4769 b73e 61cf 9f3e 8c32 b43d
00000020: f23a 02be b9e6 263e 5571 91be 6045 8d3d
00000030: 5121 443e b1c0 92be c248 2fbe fa1d c0be
00000040: d09e 41bd 6018 963e efdd 8abe e990 03be
00000050: e6f8 86be 36dd a43e d462 c0be 9953 933e
00000060: 2fe4 6a3c 3cc2 63be e992 cdbe 0fdb fc3d
00000070: acc7 7dbe 2e00 8f3c fc68 abbe 9adb a43e
00000080: a616 54bc 7d57 f83d 4c20 f8bd d335 c63e
00000090: a57c 91bd 9cec f13d 1bf3 80be 12d7 53be
000000a0: 4b3a 5f3e 58d9 28be 1001 eebd 8d3f 4ebe
000000b0: eeb4 813e 7b50 84be 7d7f 9abe 50ee 07bd
000000c0: e2bb 403e 2627 a23e 29ff 86bc bc08 a1be
000000d0: dfb6 993e 91cd 57be 40dc c6bc 1930 873d
000000e0: 5851 ab3d 1826 a03e dacc c63d efce 6f3d
000000f0: 2c09 cfbe 6d35 cc3e 4e50 c93e 9ff0 21bd
00000100: 33a6 73be 0d15 6ebd 7e8a 0cbe 2d7e 17be
00000110: e1ee 7cbe dbc7 d93c a265 3abb acf7 c5be
00000120: b469 74bc 2d10 853e 8e84 35be 3c7d b73e
00000130: 5da0 893e 4063 7cbc 5b1b 50be fc0f c13e
00000140: 3ec6 58be e6a0 0e3e 250d ac3e 40f5 b13e
00000150: a9ff 2fbd c9bf f6bd b954 cfbe 5353 773e
00000160: 5552 8cbe b3c0 973e 3535 813e a2bd 20be
00000170: 59a0 7a3e ade7 3abe 47f9 313e 82af 833e

embedding_projection.bias f4 [16]
0.28254834 0.28641886 0.3049551 -0.2867866 -0.15107755 0.18936603 -0.10484579 0.19730961
0.11530486 0.16043982 0.40816534 0.027289556 -0.38954124 0.2498624 -0.10076372 -0.2503797
00000000: 2daa 903e 7ea5 923e 1323 9c3e b1d5 92be
00000010: 13b4 1abe 2be9 413e 64b9 d6bd 880b 4a3e
00000020: f424 ec3d 564a 243e 0cfb d03e 598e df3c
00000030: f371 c7be eedb 7f3e 365d cebd c531 80be

mlp.0.weight f4 [16, 2]
-0.6052677 -0.2940884 -0.63429505 -0.35384807 0.29038936 -0.10331821 0.5273536 0.61223143
-0.13047703 0.11976474 -0.69889414 0.6510347 0.29657593 0.008003237 0.62545717 0.08617485
0.24543111 0.16028194 -0.078888364 -0.23326612 0.36049488 -0.20277983 -0.6343242 -0.56196606
0.4607946 0.48112935 0.3460598 0.2523252 0.70308876 0.6087225 -0.5457613 -0.2937739
00000000: d3f2 1abf c192 96be 2961 22bf 932b b5be
00000010: eaad 943e 7f98 d3bd a500 073f 33bb 1c3f
00000020: c59b 05be 3747 f53d baea 32bf 36aa 263f
00000030: cdd8 973e 0220 033c f61d 203f 717c b03d
00000040: 4b52 7b3e f320 243e 3990 a1bd 50dd 6ebe
00000050: c992 b83e 84a5 4fbe 1263 22bf 02dd 0fbf
00000060: 45ed eb3e 9656 f63e c02e b13e c530 813e
00000070: a0fd 333f 3dd5 1b3f 03b7 0bbf 8869 96be

mlp.0.bias f4 [16]
0.040515848 0.63962775 -0.035356246 -0.25517306 0.6970727 -0.103388324 -0.39912948 -0.20570399
-0.49639237 0.61919373 0.48910704 -0.19898799 -0.044693246 0.64718 -0.16539082 -0.22560954
00000000: f2f3 253d a5be 233f b6d1 10bd 0ba6 82be
00000010: 5b73 323f 42bd d3bd b35a ccbe 11a4 52be
00000020: 2427 febe 7b83 1e3f 3d6c fa3e 82c3 4bbe
00000030: 4410 37bd 97ad 253f 365c 29be 3006 67be

mlp.2.weight f4 [16, 16]
0.1824243 -0.15984493 -0.012219854 -0.21960221 -0.15288675 0.17241102 0.21855377 -0.14844498
-0.24297422 0.018935502 0.23290178 0.015210837 0.21065499 0.09955546 0.14318928 0.23239788
-0.1813376 0.21171975 -0.17921537 -0.09529417 -0.05327499 0.12875128 -0.23283225 -0.04973127
-0.057579704 0.23252499 -0.22874214 0.20503387 0.02878239 -0.088228285 0.06649354 -0.15652844
-0.115603685 -0.099606246 0.20125556 0.0049152183 -0.05987817 -0.06834826 -0.06629312 -0.11510087
-0.18433423 0.107746184 0.0007244385 0.010164976 0.05076105 -0.08137177 0.04640342 -0.14199474
-0.17508179 -0.063626975 -0.2305854 0.22890562 -0.18742809 0.24942937 0.044149693 -0.08629927
-0.17975739 0.21263573 0.16800055 -0.1239627 -0.029462922 0.037651133 0.20928758 -0.19677973
-0.23717722 -0.17032054 -0.021222077 0.24307919 -0.07372716 -0.035338312 -0.043206718 0.16679049
0.1508586 0.14365199 -0.044551846 -0.05609107 0.17901848 0.16686204 0.15530016 -0.19074282
-0.026609123 0.10667938 -0.07810339 0.113964096 0.009574652 -0.15034875 -0.07618366 -0.19739765
-0.16934365 -0.224938 -0.1704004 0.19065806 0.22621147 0.061881494 0.2017197 -0.13461742
-0.06851545 0.20137054 -0.24944545 -0.019182459 0.0691061 -0.14559028 0.2046432 -0.21981606
0.19702406 -0.18143016 0.07276384 0.117554754 -0.21670939 0.19573413 -0.06874764 0.12972823
-0.15809491 0.09692517 -0.13989638 -0.21286565 0.14786243 -0.16218081 -0.004526089 0.025319785
-0.13557206 0.075302154 0.029514499 -0.044899136 -0.07843129 -0.2469236 0.09980941 0.20897827
0.082142085 0.077353776 -0.097474575 -0.24068993 0.07706162 0.12482518 -0.11640746 -0.21637963
0.19069292 -0.24725819 0.058918007 -0.18073237 0.14824773 -0.040013008 -0.1210216 0.11852279
0.17115453 -0.19479075 -0.23348527 -0.21333787 -0.08653551 0.2499269 0.18788229 0.15007746
-0.11371853 0.24921146 -0.06365446 0.06928715 -0.05741203 0.12275982 0.15186052 -0.055488706
-0.01023531 -0.049799353 0.045530196 -0.120865315 -0.24004528 -0.22548527 0.09001031 -0.015676389
-0.15911743 0.07537633 0.017775211 0.23087713 0.19697496 -0.14598227 -0.20214626 0.13397199
-0.045880586 0.03390476 0.08981442 0.23301351 -0.20305142 -0.078125656 0.23295853 -0.039313022
-0.14475845 -0.19819471 -0.12159578 -0.15299505 0.12067871 -0.22095264 -0.18357149 0.05202937
-0.24987122 -0.2221148 -0.0075835586 -0.08904344 -0.06169814 0.21436566 0.18131228 -0.18249662
0.22699367 0.21639857 -0.12404654 -0.17425746 0.17677808 -0.13409936 -0.109801106 -0.18931383
0.19200763 0.19635704 -0.22335729 -0.13989808 -0.0733484 -0.10553774 0.12591822 -0.042791247
0.1969999 0.18559587 0.026366854 -0.029372513 0.08697436 0.20393102 -0.08902795 -0.16133323
-0.052619964 0.1403605 -0.024609169 0.17895685 0.063204765 0.13688141 0.16629864 0.23078616
0.09886613 -0.05367762 -0.23922612 0.0407317 -0.189388 -0.09636022 0.10375541 0.15247509
-0.094387144 0.07887021 0.043827523 0.12986436 -0.08117333 0.13623923 -0.13946052 -0.06601328
0.094520144 0.0023428798 -0.19816716 0.19513929 0.12833105 0.11470247 0.011608207 0.2062495
00000000: 70cd 3a3e 64ae 23be c835 48bc 67df 60be
00000010: 588e 1cbe 848c 303e 8fcc 5f3e f601 18be
00000020: 3cce 78be a01e 9b3c ce7d 6e3e e036 793c
00000030: f1b5 573e bce3 cb3d 36a0 123e b6f9 6d3e
00000040: 90b0 39be 10cd 583e 3c84 37be 9729 c3bd
00000050: e036 5abd 60d7 033e 946b 6ebe 04b3 4bbd
00000060: b2d8 6bbd 081b 6e3e 613b 6abe 66f4 513e
00000070: 0cc9 eb3c 08b1 b4bd c42d 883d fe48 20be
00000080: a0c1 ecbd 5cfe cbbd f015 4e3e d70f a13b
00000090: d042 75bd 2cfa 8bbd b0c4 87bd 01ba ebbd
000000a0: 1dc2 3cbe 08aa dc3d 3fe8 3d3a 008b 263c
000000b0: d2ea 4f3d 3ea6 a6bd 8311 3e3d 1267 11be
000000c0: a448 33be dc4e 82bd 941e 6cbe 3c66 6a3e
000000d0: 26ed 3fbe 6a6a 7f3e 4fd6 343d acbd b0bd
000000e0: 5212 38be 2ebd 593e 5608 2c3e 28e0 fdbd
000000f0: 3a5c f1bc 1338 1a3d 7c4f 563e a080 49be
00000100: 96de 72be 8268 2ebe ecd9 adbc c0e9 783e
00000110: 44fe 96bd e8be 10bd 87f9 30bd 20cb 2a3e
00000120: ad7a 1a3e 8219 133e ff7b 36bd c0bf 65bd
00000130: 9f50 373e e2dd 2a3e 0107 1f3e 1652 43be
00000140: 60fb d9bc b87a da3d acf4 9fbd 0266 e93d
00000150: 00df 1c3c 06f5 19be 2e06 9cbd 9c22 4abe
00000160: 6c68 2dbe 2656 66be 717d 2ebe de3b 433e
00000170: fba3 673e 7377 7d3d 9c8f 4e3e 26d9 09be
00000180: d451 8cbd 1434 4e3e a16e 7fbe 8824 9dbc
00000190: 8087 8d3d 9e15 15be fd8d 513e 7617 61be
000001a0: adc0 493e d4c8 39be 3505 953d 8cc0 f03d
000001b0: 11e9 5dbe 876e 483e 90cb 8cbd 7ad7 043e
000001c0: a2e3 21be b480 c63d ff40 0fbe 74f9 59be
000001d0: 4069 173e ba12 26be 964f 94bb 706b cf3c
000001e0: 67d3 0abe 0438 9a3d 64c8 f13c 28e8 37bd
000001f0: 96a0 a0bd 8ad9 7cbe e068 cc3d 66fe 553e
00000200: 1c3a a83d a86b 9e3d c0a0 c7bd 6c77 76be
00000210: 7cd2 9d3d 58a4 ff3d 0967 eebd 9f92 5dbe
00000220: 0145 433e 4031 7dbe 0254 713d e811 39be
00000230: 41ce 173e aee4 23bd 2cda f7bd 14bc f23d
00000240: 2243 2f3e 3a77 47be c316 6fbe 3e75 5abe
00000250: 8839 b1bd d6ec 7f3e 3764 403e e8ad 193e
00000260: 43e5 e8bd 4a31 7f3e 455d 82bd 6ce6 8d3d
00000270: e028 6bbd 8069 fb3d 5381 1b3e 2048 63bd
00000280: 00b2 27bc 68fa 4bbd df7d 3a3d 3c88 f7bd
00000290: 6ece 75be 9ce5 66be 5357 b83d c56b 80bc
000002a0: aeef 22be e85e 9a3d 529d 913c 0e6b 6c3e
000002b0: ceb3 493e 607c 15be 6eff 4ebe f42f 093e
000002c0: 48ed 3bbd b8df 0a3d 9ff0 b73d 189b 6e3e
000002d0: b6ec 4fbe 5800 a0bd ae8c 6e3e b106 21bd
000002e0: 8f3b 14be 8ef3 4abe 3507 f9bd bcaa 1cbe
000002f0: 6626 f73d 6941 62be 2afa 3bbe c01c 553d
00000300: 3ede 7fbe 1072 63be 807f f8bb 685c b6bd
00000310: 30b7 7cbd ac82 5b3e eda9 393e 65e0 3abe
00000320: 0771 683e 9697 5d3e 1d0c febd 8c70 32be
00000330: 5005 353e 5851 09be 67df e0bd 7cdb 41be
00000340: a69d 443e d211 493e c6b7 64be 7141 0fbe
00000350: b037 96bd 2c24 d8bd b5f0 003e e045 2fbd
00000360: 57ba 493e d80c 3e3e 4dff d73c a09e f0bc
00000370: 9d1f b23d 4bd3 503e 4954 b6bd 8a34 25be
00000380: 0888 57bd aaba 0f3e 2b99 c9bc 7740 373e
00000390: 8071 813d a42a 0c3e 314a 2a3e 3553 6c3e
000003a0: 537a ca3d 10dd 5bbd b1f7 74be 48d6 263d
000003b0: eeee 41be 8258 c5bd b77d d43d 6e22 1c3e
000003c0: 0c4e c1bd b486 a13d 7d84 333d 2afb 043e
000003d0: 343e a6bd 4c82 0b3e bdce 0ebe f831 87bd
000003e0: c793 c13d 008b 193b 55ec 4abe 98d2 473e
000003f0: 3769 033e 21e9 ea3d 5930 3e3c 1233 533e

mlp.2.bias f4 [16]
0.13303804 0.0120686125 -0.24178767 0.22763973 0.055587232 0.0041871597 -0.09962065 0.051649403
-0.054512866 -0.10131933 -0.06300196 -0.13173674 -0.23256539 -0.09140264 -0.14379135 -0.20484939
00000000: 203b 083e 6ebb 453c 3097 77be 641a 693e
00000010: 70af 633d 7134 893b e905 ccbd 538e 533d
00000020: e248 5fbd 8280 cfbd 2c07 81bd ffe5 06be
00000030: 9f25 6ebe 4f31 bbbd 0a3e 13be 0ac4 51be

encoder.layers.0.query_embedding.weight f4 [16, 16]
-0.13179506 0.1668771 -0.04525206 0.055441674 0.06749805 -0.122767664 -0.21527204 0.11584757
0.21432896 0.21803926 0.07645192 0.15634044 -0.070845835 0.24365762 0.22021578 -0.17639612
-0.21639985 -0.2253782 -0.015501197 -0.1050669 0.153702 0.14903842 -0.05160569 0.11446278
0.028603671 -0.053152733 0.15649225 -0.002798344 0.09552735 0.07584292 -0.23346624 0.23235428
0.17063975 -0.1983885 0.13001396 -0.1743779 0.14808004 -0.14199911 0.00942512 0.13970582
-0.061861034 0.004369441 -0.11174182 0.010659148 -0.23652206 -0.025422832 0.07288335 -0.057045154
-0.15175806 0.11230104 -0.08548546 0.21321899 -0.11343169 -0.06488116 -0.21690947 0.074632026
-0.0032458843 0.16294669 0.11108869 0.1737009 0.20816015 0.121869 0.012086725 -0.13215691
-0.15280332 -0.2145182 0.08757879 0.0035846196 -0.20017062 0.07371539 0.091768965 -0.2411854
0.12788907 0.20134957 0.22028683 -0.15306355 0.1983716 0.1597601 0.23415232 0.23883277
0.1793546 0.21308523 -0.12402628 -0.21881387 -0.22981565 -0.08774089 0.1278844 -0.1577417
0.22334445 0.19150984 0.053809557 0.020582508 -0.058279794 -0.22039759 0.10170292 0.07019577
-0.028115906 -0.01808988 0.10175463 -0.20355609 0.10264854 0.08168091 0.16899478 -0.24627662
0.22148578 0.20664406 -0.13340192 0.06475432 0.00052541454 0.18761335 -0.061997805 -0.11368814
-0.075420566 0.04004636 0.20216925 0.22175348 -0.02310358 9.107553e-05 -0.026109794 -0.112541504
-0.11081789 -0.12173923 -0.12330938 0.15444644 -0.20172587 0.13872047 0.119067155 -0.12742431
-0.03831316 -0.07751583 0.033568233 -0.04568189 -0.03257943 -0.21267125 0.19550563 0.08462561
0.051030546 -0.007582835 -0.25115025 -0.23925148 -0.09502878 -0.09785223 -0.13769612 0.0100796325
-0.15401584 -0.045597892 0.07654733 0.13448107 0.15329984 -0.055740677 -0.10216795 -0.16491473
0.13724622 0.05186483 0.010410724 -0.16982624 -0.039156288 -0.19093399 0.09384091 0.046735726
-0.2390853 0.19369192 -0.025961936 0.22497627 -0.09555524 -0.06519174 0.09112267 -0.08749179
-0.19848661 0.11883006 0.109241374 0.24374628 -0.19315706 0.04762981 0.12592152 0.22222723
0.22981533 0.24866354 -0.03334096 0.18451546 -0.18883936 -0.1715588 0.033633012 -0.24682032
-0.13447222 0.22240396 0.03885024 0.16406755 0.04852519 0.2119678 0.23953754 0.0644557
0.16632411 0.20806621 -0.15427163 -0.005819598 -0.006352992 0.020964192 -0.04084658 0.16216896
-0.14291368 0.036904115 0.13316192 0.17774004 0.18521741 0.07411267 -0.116028294 -0.046561014
0.10632638 -0.10827037 -0.19614998 0.012427438 0.11445135 0.048633974 0.019857923 -0.07774691
0.11390371 -0.12263273 0.14101098 -0.07106985 -0.2360377 -0.077207536 0.06232199 -0.212519
-0.047641046 -0.2283945 -0.0074039986 -0.19353117 0.060554504 0.0717061 -0.21445674 -0.2254392
0.12796143 0.108949624 -0.1285691 -0.18850434 -0.12947574 0.054513287 -0.08709944 0.08050529
0.0866042 0.088820726 -0.05915643 0.20521852 -0.09904843 -0.100078896 0.08547577 0.18533707
0.006443925 -0.037764303 -0.008568841 0.14695692 0.10715182 0.12058161 0.15266867 -0.24201407
00000000: 49f5 06be d5e1 2a3e 395a 39bd cf16 633d
00000010: 6b3c 8a3d 9d6d fbbd 4670 5cbe 7e41 ed3d
00000020: 0d79 5b3e af45 5f3e d392 9c3d b517 203e
00000030: 9f17 91bd 6281 793e 3f80 613e 2fa1 34be
00000040: ec97 5dbe 8bc9 66be bcf8 7dbc 512d d7bd
00000050: 0f64 1d3e 879d 183e 7d60 53bd 766b ea3d
00000060: 3f52 ea3c aeb6 59bd 813f 203e 6c64 37bb
00000070: d8a3 c33d 8853 9b3d c611 6fbe 48ee 6d3e
00000080: 30bc 2e3e 5b26 4bbe 6122 053e 1f90 32be
00000090: 4ba2 173e 3768 11be d26b 1a3c 0b0f 0f3e
000000a0: ff61 7dbd 872d 8f3b e5d8 e4bd b5a3 2e3c
000000b0: d732 72be 8b43 d0bc de43 953d 2ea8 69bd
000000c0: 7766 1bbe 16fe e53d 0013 afbd 1456 5a3e
000000d0: e04e e8bd 6ae0 84bd 841d 5ebe add8 983d
000000e0: e7b8 54bb 7fdb 263e 7882 e33d a6de 313e
000000f0: ef27 553e 7496 f93d 6607 463c 2454 07be
00000100: 7978 1cbe a9aa 5bbe 825c b33d f0eb 6a3b
00000110: 87f9 4cbe 18f8 963d 5ef1 bb3d 4ef9 76be
00000120: 5af5 023e 952e 4e3e df92 613e b1bc 1cbe
00000130: ed21 4b3e 2798 233e a0c5 6f3e 9490 743e
00000140: bba8 373e 0433 5a3e 7e01 febd be10 60be
00000150: cb54 6bbe 7fb1 b3bd 21f4 023e 0a87 21be
00000160: 68b4 643e 281b 443e 6967 5c3d a69c a83c
00000170: cbb6 6ebd e8af 61be 9f49 d03d cdc2 8f3d
00000180: 5453 e6bc 3a31 94bc bb64 d03d 0271 50be
00000190: 6639 d23d 5248 a73d f80c 2d3e f02f 7cbe
000001a0: 2bcd 623e 809a 533e 839a 08be ea9d 843d
000001b0: f9bb 093a b71d 403e 69f1 7dbd 54d5 e8bd
000001c0: 1976 9abd a707 243d 7505 4f3e 5813 633e
000001d0: b843 bdbc ceff be38 35e4 d5bc 297c e6bd
000001e0: 7df4 e2bd 6b52 f9bd a189 fcbd 3527 1e3e
000001f0: 3a91 4ebe bd0c 0e3e 7bd9 f33d 857b 02be
00000200: 43ee 1cbd 9fc0 9ebd d87e 093d ef1c 3bbd
00000210: 0272 05bd 7ec6 59be a132 483e 3150 ad3d
00000220: 6805 513d 6e79 f8bb c496 80be 57fe 74be
00000230: 739e c2bd c066 c8bd 3600 0dbe 0b25 253c
00000240: 54b6 1dbe dbc4 3abd d9c4 9c3d 68b5 093e
00000250: a2fa 1c3e 5650 64bd 6e3d d1bd 68df 28be
00000260: 468a 0c3e 3770 543d be91 2a3c eee6 2dbe
00000270: 5862 20bd 3384 43be aa2f c03d f66d 3f3d
00000280: c7d2 74be 2d57 463e 20ae d4bc 2e60 663e
00000290: 77b2 c3bd 3f83 85bd 869e ba3d e52e b3bd
000002a0: 1340 4bbe 2d5d f33d f1b9 df3d a098 793e
000002b0: f7ca 45be 7a17 433d 92f1 003e 898f 633e
000002c0: b654 6b3e a8a1 7e3e 8890 08bd 9ff1 3c3e
000002d0: 1b5f 41be 1cad 2fbe c5c2 093d 77be 7cbe
000002e0: 16b3 09be ddbd 633e 6e21 1f3d 5301 283e
000002f0: 5ac2 463d 160e 593e 5449 753e 5a01 843d
00000300: de50 2a3e 4f0f 553e 62f9 1dbe 54b2 bebb
00000310: c22c d0bb 19bd ab3c be4e 27bd 9f0f 263e
00000320: f757 12be c528 173d 995b 083e 7c01 363e
00000330: a2a9 3d3e 62c8 973d 3ea0 edbd c3b6 3ebd
00000340: a5c1 d93d dbbc ddbd 8adb 48be 749c 4b3c
00000350: 7865 ea3d 6b34 473d 15ad a23c c639 9fbd
00000360: 5946 e93d de26 fbbd 2f65 103e 128d 91bd
00000370: deb3 71be fc1e 9ebd 5845 7f3d 959e 59be
00000380: 4223 43bd 3fe0 69be 3e9d f2bb 092d 46be
00000390: 0008 783d a6da 923d 8c9a 5bbe 89d9 66be
000003a0: 5208 033e fb20 df3d 9ea7 03be 4807 41be
000003b0: 4a95 04be 5349 5f3d 3161 b2bd f5df a43d
000003c0: 8b5d b13d a4e7 b53d 034e 72bd ce24 523e
000003d0: e7d9 cabd 2af6 ccbd ec0d af3d 00c9 3d3e
000003e0: 9027 d33b beae 1abd 5364 0cbc e07b 163e
000003f0: 6a72 db3d 7ef3 f63d 2d55 1c3e 89d2 77be

encoder.layers.0.query_embedding.bias f4 [16]
0.0137467515 -0.054255042 -0.1998627 0.1404269 0.15810099 -0.24445766 -0.18920423 0.15208398
0.02815092 0.1318646 -0.12395782 -0.0044232924 -0.08513177 -0.103949696 -0.1329037 0.01688445
00000000: 0e3a 613c 893a 5ebd cfa8 4cbe 12cc 0f3e
00000010: 3ae5 213e 1c53 7abe c1be 41be e7bb 1b3e
00000020: c29c e63c 8407 073e 99dd fdbd 44f1 90bb
00000030: 9159 aebd 94e3 d4bd e817 08be 4251 8a3c

encoder.layers.0.key_embedding.weight f4 [16, 16]
0.13131785 0.17363529 0.20980489 -0.074205235 -0.17914645 0.17453688 -0.031135572 0.16425811
0.10127397 -0.10722603 0.033864032 -0.019842172 0.17299996 0.2367992 0.1524035 -0.07192355
0.088168375 -0.19028628 0.09247062 -0.16500992 -0.10426597 0.08130946 0.12245961 -0.05799697
0.13766854 -0.0044245184 0.031103645 -0.045864448 -0.09127968 0.02657324 0.0026666773 -0.17249867
-0.23191081 0.113676265 -0.22190563 0.05262304 -0.21398331 -0.11276884 -0.030356122 0.19284447
0.04289598 0.107783295 0.07267161 -0.07104398 0.2140064 -0.040068902 0.010272535 -0.0343966
0.14306414 -0.12423118 -0.0640522 0.038851973 -0.032683495 0.027135165 0.18265739 0.026237518
-0.04830992 -0.052979458 -0.14340132 -0.15009452 0.07995846 0.04875583 -0.012751466 -0.22035804
0.14854477 -0.0038539083 -0.20582044 0.073726445 -0.15013759 -0.08403913 -0.21191853 -0.06260462
0.11911793 0.012194247 0.19136897 -0.15871452 0.12934963 -0.11232036 -0.16812348 -0.13083614
0.19691199 -0.0772345 0.008381721 0.18317217 0.054224674 0.08310393 0.0364643 0.2122291
-0.16887863 -0.15992554 0.14698438 -0.18202117 -0.08685113 -0.09600836 -0.06204006 -0.010701331
0.13282683 0.050652392 -0.14485782 -0.24120583 0.12803568 0.18378462 -0.04239385 0.13996041
-0.197864 0.24426098 -0.1486968 0.137531 -0.07576149 0.10548914 0.06659937 0.02004916
-0.17790237 0.040295932 0.22554788 0.07845582 -0.06916164 0.078653224 -0.13663834 -0.07076322
-0.16536479 0.15556607 0.2114495 -0.05218853 -0.07348875 0.17970817 0.17740323 0.17547373
0.07072816 -0.029980034 -0.1658506 -0.0029694987 -0.050342683 -0.05250586 0.03572299 -0.22181886
0.12988003 0.05241682 -0.106948264 0.19406378 -0.07775331 0.17597508 -0.0031740763 -0.16652858
0.148981 -0.080994464 -0.039882097 -0.1223652 -0.1974147 -0.04381802 -0.080976605 -0.16907053
0.004696807 0.043861035 0.15244648 0.17473386 -0.014650733 -0.2182741 -0.16460839 0.23130149
-0.22593805 0.087386884 0.00083695905 -0.1644747 -0.22066939 -0.1732236 0.039751764 -0.159272
0.0751701 0.10246101 0.18633896 0.15965639 -0.23964077 -0.011696727 0.05688349 0.21007553
0.10813571 0.14998205 0.21158049 -0.1336355 0.064833224 -0.0926282 -0.035760958 -0.026969064
-0.067533135 -0.07383802 0.035482634 -0.16148466 0.122644275 -0.1327594 -0.150428 -0.015865684
-0.13029964 -0.20549345 0.22970456 0.016505316 0.07705392 -0.06944778 0.099934295 0.14052378
-0.1483759 0.07052671 -0.09107225 -0.24565768 0.12632202 0.117563255 0.17594928 0.12975179
0.07008126 0.2106341 -0.16521709 -0.018483894 -0.09839459 0.03926518 -0.19758603 -0.17182064
-0.12763196 -0.22486982 -0.21739455 0.14577407 -0.092463344 0.23490524 0.22224838 -0.08111075
-0.17463374 -0.18103409 0.09276396 -0.123616025 -0.22920755 -0.15603325 0.00246461 0.1303972
-0.09931077 -0.180101 0.06500739 -0.21947818 0.22241151 0.060838766 -0.08046919 0.024899678
0.121594764 0.1489568 0.14529823 0.043579213 -0.052905243 0.16321938 -0.10919436 -0.2303518
0.02723011 -0.10446158 0.0190696 0.05863586 0.12843622 -0.0944096 -0.170795 0.029911127
00000000: 3078 063e 73cd 313e 18d7 563e eaf8 97bd
00000010: 2b72 37be ccb9 323e 0710 ffbc 4733 283e
00000020: ba68 cf3d 5299 dbbd 03b5 0a3d 0d8c a2bc
00000030: e726 313e 7d7b 723e aa0f 1c3e a74c 93bd
00000040: 9f91 b43d 68da 42be 3d61 bd3d 5cf8 28be
00000050: 6689 d5bd 9385 a63d 1bcc fa3d 3b8e 6dbd
00000060: fbf8 0c3e 8dfb 90bb 12cd fe3c 5cdc 3bbd
00000070: d7f0 babd 20b0 d93c 6cc3 2e3b 7ea3 30be
00000080: 077a 6dbe 1acf e83d 3b3b 63be 428b 573d
00000090: 711e 5bbe 59f3 e6bd 67ad f8bc 0579 453e
000000a0: b2b3 2f3d 7dbd dc3d dad4 943d 827f 91bd
000000b0: 7e24 5b3e 4a1f 24bd 224e 283c 73e3 0cbd
000000c0: 687f 123e eb6c febd cd2d 83bd 3f23 1f3d
000000d0: 21df 05bd 914a de3c 8a0a 3b3e 10f0 d63c
000000e0: 9fe0 45bd fd00 59bd ccd7 12be 61b2 19be
000000f0: 43c1 a33d 31b4 473d 86eb 50bc 8aa5 61be
00000100: 1f1c 183e da91 7cbb 98c2 52be e4fd 963d
00000110: abbd 19be b51c acbd 2c01 59be da36 80bd
00000120: 1af4 f33d 61ca 473c 3af6 433e 0f86 22be
00000130: 3b74 043e 3808 e6bd 9028 2cbe e9f9 05be
00000140: 4ca3 493e 1f2d 9ebd 7c53 093c 7c91 3b3e
00000150: b11a 5e3d 6532 aa3d 975b 153d 9652 593e
00000160: 85ee 2cbe 85c3 23be 1383 163e c263 3abe
00000170: 01df b1bd 08a0 c4bd b81d 7ebd a354 2fbc
00000180: c203 083e e278 4f3d 9c55 14be a9fe 76be
00000190: c91b 033e 0932 3c3e 2ca5 2dbd c851 0f3e
000001a0: dc9c 4abe 8d1f 7a3e f943 18be edd4 0c3e
000001b0: d728 9bbd b10a d83d 4065 883d 233e a43c
000001c0: 0a2c 36be 590d 253d 06f6 663e 72ad a03d
000001d0: 9ea4 8dbd f114 a13d ecea 0bbe 4fec 90bd
000001e0: 6355 29be b64c 1f3e 3886 583e a4c3 55bd
000001f0: 4581 96bd 6b05 383e 31a9 353e 63af 333e
00000200: edd9 903d b098 f5bc bdd4 29be ec9b 42bb
00000210: 2134 4ebd 6210 57bd 4552 123d 7c24 63be
00000220: 45ff 043e 05b3 563d b107 dbbd a8b8 463e
00000230: 213d 9fbd d032 343e 2a04 50bb 7886 2abe
00000240: 7a8e 183e 6de0 a5bd 695b 23bd 9b9a fabd
00000250: 1427 4abe 867a 33bd 10d7 a5bd d320 2dbe
00000260: ace7 993b a1a7 333d ee1a 1c3e 6fed 323e
00000270: a109 70bc 3f83 5fbe 1a8f 28be 4cda 6c3e
00000280: 4e5c 67be e5f7 b23d 5f67 5b3a 0e6c 28be
00000290: 28f7 61be 8761 31be bfd2 223d 3318 23be
000002a0: c8f2 993d 14d7 d13d a4cf 3e3e f77c 233e
000002b0: 6464 75be a1a3 3fbc aafe 683d 0a1e 573e
000002c0: 4176 dd3d e594 193e 8ea8 583e bfd7 08be
000002d0: 48c7 843d dbb3 bdbd 157a 12bd 3aee dcbc
000002e0: d04e 8abd 6338 97bd 3d56 113d 3c5c 25be
000002f0: ec2c fb3d 15f2 07be cc09 1abe c0f8 81bc
00000300: 456d 05be e06c 52be ac37 6b3e 2836 873c
00000310: 72ce 9d3d a33a 8ebd 5aaa cc3d 77e5 0f3e
00000320: daef 17be 4f70 903d 1684 babd b08d 7bbe
00000330: 8f5a 013e 01c5 f03d 0c2c 343e a7dd 043e
00000340: c386 8f3d 77b0 573e ab2e 29be 896b 97bc
00000350: 1a83 c9bd 86d4 203d fe53 4abe c0f1 2fbe
00000360: f4b1 02be 4644 66be ad9c 5ebe cc45 153e
00000370: 6c5d bdbd 008b 703e 1495 633e 651d a6bd
00000380: 30d3 32be 0061 39be 08fb bd3d 662a fdbd
00000390: 62b5 6abe 2ec7 1fbe 4b85 213b d886 053e
000003a0: 7263 cbbd 666c 38be 9822 853d e3be 60be
000003b0: d8bf 633e 1232 793d 08cd a4bd 69fa cb3c
000003c0: ad06 f93d 2288 183e 0fc9 143e 1e80 323d
000003d0: 2bb3 58bd fb22 273e 4ba1 dfbd 58e1 6bbe
000003e0: ae11 df3c f4ef d5bd da37 9c3c 282c 703d
000003f0: c984 033e d259 c1bd e2e4 2ebe 2e08 f53c

encoder.layers.0.key_embedding.bias f4 [16]
-0.19116418 -0.032560788 0.1454722 -0.10951391 0.0998143 -0.12433612 0.101435624 -0.23511715
-0.23883754 0.17135173 -0.17809305 0.23368795 0.12796633 0.16344288 -0.04667792 0.07456738
00000000: 8bc0 43be 765e 05bd aaf6 143e d448 e0bd
00000010: 716b cc3d f0a3 febd 7bbd cf3d 8dc2 70be
00000020: d491 74be d476 2f3e 065e 36be e54b 6f3e
00000030: 9b09 033e 925d 273e 5931 3fbd c8b6 983d

encoder.layers.0.value_embedding.weight f4 [16, 16]
0.23036088 0.24052265 0.09869389 -0.09391746 0.2131321 0.030478613 0.11634483 0.06851083
-0.056514658 -0.15553181 0.16109927 0.08986146 0.114275105 -0.15975042 -0.06512231 -0.20696686
0.03477187 0.044173826 -0.0032488408 0.08587985 0.06244833 -0.08806944 0.054110028 -0.00558433
-0.2265325 -0.053753342 -0.12641473 0.10088984 -0.11468159 -0.24258713 0.21756278 -0.07733965
-0.13140494 -0.21812211 -0.17109507 0.10166816 -0.14215852 -0.1462356 0.106538385 -0.09357717
-0.115647174 -0.043591652 0.12703285 0.12633227 -0.05842543 -0.1390341 -0.04329593 0.056669805
0.1795495 0.1797353 -0.15226778 0.18441635 -0.10362085 -0.11733446 0.113622375 0.04268115
-0.017061882 0.021903541 -0.14141814 -0.23728453 -0.03705472 -0.15345325 -0.14513843 -0.0028124605
0.04229331 -0.12346748 0.043542746 0.18144137 -0.213679 -0.10475645 0.018286088 -0.031534508
0.010152674 -0.23124534 -0.19739299 0.18210344 -0.06916013 0.17498288 -0.21386132 0.029966217
-0.24427542 0.13375916 0.05357821 0.083687425 -0.092474654 -0.14879407 0.028070029 0.11075847
-0.084432274 -0.20075943 -0.12343764 -0.06724519 -0.14522117 -0.22136177 -0.049857248 -0.14576197
-0.23013653 -0.23064148 -0.109657764 0.10598069 0.007934849 -0.154493 -0.081647 0.10332886
-0.030035593 -0.12657602 -0.02938331 0.17312711 -0.23435529 0.07073228 -0.10881482 0.11599936
0.19895868 0.02122962 -0.21509534 0.06269799 -0.06613636 -0.1081559 0.1431284 0.122942835
0.039691366 -0.047414366 0.1481557 0.12191392 0.18616137 0.024184292 -0.20241465 -0.06679662
0.17727642 0.039006155 0.23496285 0.12325149 0.24219579 -0.19330618 -0.06480932 -0.18577667
0.041750565 0.0036790234 -0.1722801 -0.2464725 0.12589002 0.16246368 -0.08231983 0.18733287
0.12441283 -0.17435627 -0.19546926 0.10223338 -0.2418416 0.231128 0.07033809 0.00741146
-0.014704229 -0.17782533 0.023085475 -0.09890663 0.16676813 0.028749267 -0.12687619 0.23369278
-0.024719952 -0.017819285 0.12987939 0.185346 0.19880441 -0.017660407 0.20491865 -0.11640934
-0.18097311 0.010935059 -0.14329936 0.24025792 0.04369272 0.19875892 -0.120437905 -0.2078849
-0.14291692 0.109707326 0.0859008 0.015789963 0.20829165 -0.05248958 0.1363738 -0.09243633
0.112354904 -0.024773777 -0.016138926 0.14641336 0.1186803 0.13287392 -0.21887687 0.03353092
-0.21065822 0.14207733 -0.092704296 0.005563878 -0.0014297873 -0.081912264 -0.20281664 -0.22195096
-0.22767599 -0.13479656 -0.17638049 -0.20605616 -0.214661 -0.094847076 0.13797495 -0.07814851
0.08261499 0.20971465 0.097986564 -0.08298223 0.05803443 -0.1610568 -0.0009322414 -0.060196668
0.062761344 -0.06356252 0.20871058 -0.24935801 0.05582206 0.110953644 0.11378555 -0.17350066
0.16247648 -0.023346152 -0.050933056 -0.06532752 -0.0380652 0.09759615 0.12952355 0.08959257
0.23805484 0.070826046 -0.19381845 -0.087508276 0.11869137 -0.004356864 -0.025997153 0.033959758
0.20933926 0.0565412 -0.18754733 -0.20599182 -0.112276085 0.13331881 0.016110478 0.16089278
0.11305088 -0.22527234 -0.2195465 -0.139729 0.11682817 0.20948985 0.22983128 0.0065611494
00000000: b9e3 6b3e 924b 763e 0620 ca3d cc57 c0bd
00000010: 4d3f 5a3e 49ae f93c 3346 ee3d 684f 8c3d
00000020: ea7b 67bd bb43 1fbe 35f7 243e 4909 b83d
00000030: 1109 ea3d 9d95 23be d85e 85bd 1fef 53be
00000040: f36c 0e3d 9def 343d 81ea 54bb c6e1 af3d
00000050: d2c9 7f3d c05d b4bd 7aa2 5d3d c1fc b6bb
00000060: 23f8 67be 772c 5cbd dd72 01be 559f ce3d
00000070: 2ede eabd c368 78be c7c8 5e3e 4064 9ebd
00000080: 048f 06be 675b 5fbe 8c33 2fbe 6537 d03d
00000090: 0192 11be c9be 15be cc30 da3d 63a5 bfbd
000000a0: 6dd8 ecbd 298d 32bd e614 023e 3f5d 013e
000000b0: 814f 6fbd f55e 0ebe 1357 31bd 991e 683d
000000c0: d3db 373e 880c 383e 16ec 1bbe a4d7 3c3e
000000d0: 2b37 d4bd 0d4d f0bd d9b2 e83d 6ed2 2e3d
000000e0: 5cc5 8bbc 0e6f b33c ebcf 10be b7fa 72be
000000f0: b1c6 17bd d922 1dbe 2b9f 14be 4251 38bb
00000100: c03b 2d3d 85dc fcbd e159 323d c4cb 393e
00000110: abce 5abe 8d8a d6bd b5cc 953c 542a 01bd
00000120: 6757 263c 94cb 6cbe 6321 4abe 5379 3a3e
00000130: d4a3 8dbd b62e 333e 76fe 5abe b67b f53c
00000140: 5623 7abe 29f8 083e d374 5b3d 5064 ab3d
00000150: 5a63 bdbd 795d 18be 1ef3 e53c 56d5 e23d
00000160: d4ea acbd e193 4dbe e0cc fcbd d9b7 89bd
00000170: dcb4 14be a9ac 62be 1d37 4cbd a042 15be
00000180: e9a8 6bbe 482d 6cbe 4094 e0bd 670c d93d
00000190: 2b01 023c 6a33 1ebe 8b36 a7bd 159e d33d
000001a0: 340d f6bc 259d 01be 44b5 f0bc 3c48 313e
000001b0: d5fa 6fbe 16dc 903d 4eda debd 1391 ed3d
000001c0: d3bb 4b3e bde9 ad3c f441 5cbe ce67 803d
000001d0: 8072 87bd d780 ddbd 4090 123e 74c9 fb3d
000001e0: 6a93 223d 9135 42bd 21b6 173e 01ae f93d
000001f0: 16a1 3e3e 231e c63c c945 4fbe abcc 88bd
00000200: f387 353e ebc4 1f3d 1a9a 703e 476b fc3d
00000210: 2c02 783e 0ef2 45be c0ba 84bd 3d3c 3ebe
00000220: a402 2b3d c51b 713b 326a 30be 4963 7cbe
00000230: 50e9 003e e15c 263e 4d97 a8bd 30d4 3f3e
00000240: 27cc fe3d 738a 32be 1829 48be bc5f d13d
00000250: 53a5 77be d2ac 6c3e 6b0d 903d d5db f23b
00000260: 02ea 70bc d817 36be c01d bd3c 8f8f cabd
00000270: 44c5 2a3e 9583 eb3c d5eb 01be 294d 6f3e
00000280: 7f81 cabc c0f9 91bc 1aff 043e 58cb 3d3e
00000290: 6293 4b3e 8fac 90bc 32d6 513e 0568 eebd
000002a0: 0451 39be f628 333c 11bd 12be 2c06 763e
000002b0: 23f7 323d 7587 4b3e 26a8 f6bd c7df 54be
000002c0: d058 12be 3cae e03d c2ec af3d f459 813c
000002d0: 684a 553e 50ff 56bd 93a5 0b3e 424f bdbd
000002e0: 541a e63d 60f2 cabc c835 84bc 62ed 153e
000002f0: a80e f33d 1a10 083e 4221 60be b857 093d
00000300: cab6 57be b87c 113e c0db bdbd 3151 b63b
00000310: b367 bbba 9ec1 a7bd 2aaf 4fbe 1d47 63be
00000320: e523 69be 1c08 0abe 169d 34be 6300 53be
00000330: 18d0 5bbe 2f3f c2bd 4e49 0d3e 530c a0bd
00000340: 0c32 a93d 70bf 563e 2ead c83d 96f2 a9bd
00000350: 83b5 6d3d 13ec 24be a961 74ba c890 76bd
00000360: 0589 803d 112d 82bd 3ab8 553e b557 7fbe
00000370: aca5 643d aa3b e33d 6608 e93d 28aa 31be
00000380: 3c60 263e 6e40 bfbc 2e9f 50bd 6fca 85bd
00000390: 41ea 1bbd 7ee0 c73d d2a1 043e 4f7c b73d
000003a0: a6c4 733e 3f0d 913d 5878 46be 8a37 b3bd
000003b0: 7614 f33d 06c4 8ebb fbf7 d4bc 6319 0b3d
000003c0: 085d 563e bf97 673d 680c 40be 85ef 52be
000003d0: 01f1 e5bd ba84 083e 1ffa 833c 14c1 243e
000003e0: 3887 e73d cbad 66be ccd0 60be 1e15 0fbe
000003f0: 9c43 ef3d 8284 563e e458 6b3e e9fe d63b

encoder.layers.0.value_embedding.bias f4 [16]
-0.2203969 -0.094766736 0.20243917 0.08382964 -0.16502528 -0.089880005 -0.15891014 0.10345232
-0.107240885 0.19754998 -0.06906842 0.07049617 -0.1403563 -0.09078913 -0.19247392 -0.11070147
00000000: baaf 61be 1015 c2bd 374c 4f3e e0ae ab3d
00000010: 63fc 28be 0213 b8bd 57b9 22be cfde d33d
00000020: 1ca1 dbbd 8b4a 4a3e be73 8dbd 4c60 903d
00000030: 90b9 0fbe a7ef b9bd e217 45be 74b7 e2bd

encoder.layers.0.norm_attn.weight f4 [16]
0.9975598 1.0020543 1.0007781 1.0015001 0.9985922 0.997757 0.999456 1.0031743
1.0008163 1.0011636 1.0001295 1.002508 0.9980356 1.0004911 0.9975962 0.9972216
00000000: 1460 7f3f 5143 803f 7f19 803f 2831 803f
00000010: bda3 7f3f 016d 7f3f 59dc 7f3f 0468 803f
00000020: c01a 803f 2126 803f 3e04 803f 2f52 803f
00000030: 437f 7f3f 1810 803f 7762 7f3f ea49 7f3f

encoder.layers.0.norm_attn.bias f4 [16]
-0.0018416005 0.0007638353 0.0030244184 -0.001864481 -0.0004211818 0.00096488796 -0.002960975 -0.002015506
-0.003403749 -0.0028464624 0.0002809279 0.00052386615 -0.001060949 0.00091425766 -0.0012385258 -0.00025121003
00000000: dc61 f1ba 1f3c 483a 5235 463b 9a61 f4ba
00000010: 10d2 dcb9 89f0 7c3a eb0c 42bb 9416 04bb
00000020: 6f11 5fbb b78b 3abb 8149 9339 1054 093a
00000030: 8b0f 8bba cbaa 6f3a 0856 a2ba d7b4 83b9

encoder.layers.0.norm_attn.running_mean f4 [16]
7.420855 -7.8719087 -5.742446 20.044168 61.033577 3.6104157 -14.381327 -54.931263
-14.239166 -2.974659 -6.8698616 -7.1068363 5.2304063 -16.084097 11.780507 2.3441768
00000000: a577 ed40 ade6 fbc0 1ec2 b7c0 755a a041
00000010: 6222 7442 0d11 6740 ea19 66c1 9db9 5bc2
00000020: a0d3 63c1 d060 3ec0 e8d5 dbc0 346b e3c0
00000030: 7d5f a740 3bac 80c1 f57c 3c41 fe06 1640

encoder.layers.0.norm_attn.running_var f4 [16]
5.8420367 55.16092 1.226511 8.769779 23.95504 29.240393 7.3731112 73.50299
60.679363 6.8956075 42.775105 3.0530002 64.11086 23.44947 15.668616 17.226961
00000000: f7f1 ba40 c8a4 5c42 50fe 9c3f 0451 0c41
00000010: eca3 bf41 53ec e941 87f0 eb40 8801 9342
00000020: abb7 7242 d1a8 dc40 b519 2b42 5b64 4340
00000030: c338 8042 8498 bb41 a7b2 7a41 d1d0 8941

encoder.layers.0.norm_ffn.weight f4 [16]
0.99748015 0.99676967 1.0035433 0.99958545 0.9958755 0.9961889 0.99688536 0.9973567
0.99593943 1.001113 0.996252 0.9960563 0.99650985 0.9967682 0.998374 0.9971607
00000000: dc5a 7f3f 4c2c 7f3f 1b74 803f d5e4 7f3f
00000010: b2f1 7e3f 3c06 7f3f e133 7f3f c552 7f3f
00000020: e3f5 7e3f 7924 803f 5f0a 7f3f 8cfd 7e3f
00000030: 451b 7f3f 332c 7f3f 7095 7f3f ec45 7f3f

encoder.layers.0.norm_ffn.bias f4 [16]
-0.0014299061 0.0007832569 -0.0010201251 0.0010686175 -0.0017865689 0.0007753611 -0.00037110204 6.295878e-05
0.00013704349 0.0001522713 -0.00086724636 0.0010796906 0.00019012745 -0.00055611454 0.0010066595 -0.0013166353
00000000: b06b bbba 7b53 4d3a b8b5 85ba da10 8c3a
00000010: 4e2b eaba 9a41 4b3a 7990 c2b9 bd08 8438
00000020: 55b3 0f39 04ab 1f39 eb57 63ba 6884 8d3a
00000030: f35c 4739 37c8 11ba e3f1 833a f392 acba

encoder.layers.0.norm_ffn.running_mean f4 [16]
-0.078113936 0.17906371 0.22298555 0.16832718 0.26651657 -0.17104141 -0.11733313 0.027622193
-0.21625236 0.37631226 0.09894438 0.016672192 0.0009279295 0.19375776 0.22237875 0.18110016
00000000: 33fa 9fbd 7a5c 373e 5356 643e f65d 2c3e
00000010: dc74 883e 7b25 2fbe 5a4c f0bd f047 e23c
00000020: 4271 5dbe 00ac c03e 5aa3 ca3d 1f94 883c
00000030: 4b40 733a 6f68 463e 41b7 633e 5272 393e

encoder.layers.0.norm_ffn.running_var f4 [16]
1.0112466 0.8511261 1.2346087 0.9920018 1.0723298 1.0030586 0.7571119 1.0086141
0.9936885 1.0881147 1.164787 1.1237515 1.0333495 1.159327 1.009124 1.0312012
00000000: 8770 813f 66e3 593f a807 9e3f d4f3 7d3f
00000010: 1a42 893f 3964 803f 16d2 413f 441a 813f
00000020: 5f62 7e3f 5847 8b3f be17 953f 17d7 8f3f
00000030: cc44 843f d464 943f fa2a 813f 67fe 833f

encoder.layers.0.ffn.0.weight f4 [64, 16]
0.0588644 -0.0012765788 -0.16988161 -0.15784101 0.11417269 0.13890728 0.14535111 0.12487483
-0.14772885 -0.20209251 0.16970097 -0.24932614 0.14455152 -0.22342408 0.062013768 0.050632708
-0.1936768 0.046931352 0.066370524 -0.10443191 -0.20285639 -0.087844394 -0.24819925 -0.2036327
-0.012347587 0.128551 -0.06974733 -0.15473396 0.20946045 0.09104378 -0.15983652 -0.050276622
-0.23826696 -0.12067009 0.0056087556 0.1912893 -0.10287662 0.08992509 -0.0074540516 0.06353692
0.23026128 0.19913015 -0.15751477 -0.016262257 0.19181618 -0.22688733 -0.03355507 -0.24920958
-0.1286781 0.13345084 0.12197765 0.1769117 0.20654337 0.18151334 0.071787626 0.04699288
0.13797773 -0.14976192 0.014653318 0.24449204 0.11371357 -0.08458598 -0.19445883 -0.2169998
-0.13597757 -0.20898885 0.096508175 -0.046937834 0.20342919 -0.0672615 -0.21372113 0.23058859
-0.031802267 -0.060340635 0.13959059 0.07898062 -0.00018702105 0.13352622 0.21786733 -0.05590169
-0.0002932117 0.17566743 0.0032739057 0.07127331 -0.0062324754 -0.19306888 0.18465348 0.024795428
-0.22006322 -0.110979415 -0.037462164 0.06373744 -0.24536166 -0.20594902 0.0958905 -0.03943288
-0.07845234 0.11580912 0.083669364 0.118568145 0.08541228 -0.20331424 -0.16360581 -0.027656948
0.22777306 -0.1626498 -0.17874599 -0.2327059 -0.12100246 0.24823897 0.2258874 0.13984357
-0.12681498 -0.21729255 0.2300545 -0.21103908 0.23604661 -0.050053377 0.19556919 -0.22610798
-0.018491961 0.17964882 0.011866828 -0.20728286 0.07573864 -0.18822643 -0.2049377 -0.21116424
-0.06039413 0.055317428 -0.23777057 0.13799794 -0.054836333 0.23409206 0.1870149 0.21714321
-0.12621896 -0.11075003 0.22236824 -0.03359397 0.22117521 -0.18726183 -0.004134739 -0.21168458
0.2417291 0.07196391 0.17236723 -0.078248754 0.12822469 0.0033064042 0.06583218 -0.23943837
0.21976158 -0.07584631 0.092259295 0.19719963 -0.118478 -0.017720627 0.015371687 0.23543233
0.07473623 0.07177212 0.23870917 -0.06384428 -0.19758731 -0.2067874 -0.15370603 0.07999875
0.10668675 -0.048430417 -0.007813468 -0.21228826 -0.11316548 -0.20998272 0.1980932 -0.18309134
0.17235516 -0.21696539 0.14086875 0.12004299 0.18558548 -0.23424342 0.06417499 0.05841308
0.0791646 0.24623547 -0.19500616 0.06453442 0.1927895 0.010665604 0.09938004 -0.2194129
0.16219583 0.18055366 -0.24268174 -0.073998846 0.12683307 -0.19403762 0.105919294 -0.012620762
0.074117385 0.107829355 0.21399303 -0.14753397 -0.22140123 0.093793765 -0.1523406 0.079515696
-0.14283356 0.23308407 -0.19622205 0.037093308 0.048004232 -0.17561185 -0.13363512 -0.10513236
0.039356835 0.119700916 -0.14373687 0.20992374 -0.11587866 -0.0621919 0.23467486 0.22233598
0.11416509 0.19503306 0.17735341 -0.1013107 0.030358993 0.2095653 0.23449233 -0.08227359
-0.012596568 0.020494303 -0.057030268 0.106969036 0.06604947 -0.17545086 -0.10177799 -0.24412072
-0.15904248 0.19091079 -0.19854079 -0.05402815 -0.1754668 0.051668428 -0.045411214 0.16429894
-0.15518875 -0.13420095 -0.0047409316 0.0009167644 -0.011098547 -0.14494362 -0.01428095 0.048480317
00000000: cc1b 713d e052 a7ba 72f5 2dbe 13a1 21be
00000010: 5fd3 e93d b63d 0e3e ecd6 143e 60be ff3d
00000020: 3b46 17be 57f1 4ebe 17c6 2d3e 5a4f 7fbe
00000030: 5005 143e 48c9 64be 2602 7e3d 3e64 4f3d
00000040: 3653 46be 173b 403d 45ed 873d 66e0 d5bd
00000050: 96b9 4fbe c3e7 b3bd f227 7ebe 1785 50be
00000060: 894d 4abc e0a2 033e b0d7 8ebd 9472 1ebe
00000070: cd7c 563e 2975 ba3d 2fac 23be dcee 4dbd
00000080: 41fc 73be e121 f7bd a7c9 b73b 58e1 433e
00000090: fab0 d2bd a52a b83d 1e41 f4bb a51f 823d
000000a0: 9dc9 6b3e c6e8 4b3e 8d4b 21be 6d38 85bc
000000b0: 766b 443e 2755 68be 0b71 09bd cc30 7fbe
000000c0: 31c4 03be 56a7 083e 6bcf f93d 5728 353e
000000d0: 1b80 533e a2de 393e 6405 933d 9b7b 403d
000000e0: 094a 0d3e 305b 19be 7814 703c 1f5c 7a3e
000000f0: a9e2 e83d 6a3b adbd 3720 47be 3235 5ebe
00000100: b43d 0bbe 2c01 56be 14a6 c53d e341 40bd
00000110: be4f 503e 66c0 89bd b6d9 5abe 6a1f 6c3e
00000120: 1843 02bd be27 77bd d6f0 0e3e 97c0 a13d
00000130: 151b 44b9 19bb 083e 9d18 5f3e 2cf9 64bd
00000140: 35ba 99b9 2ae2 333e 068f 563b bef7 913d
00000150: cb39 ccbb d9b3 45be cd15 3d3e c81f cb3c
00000160: 4158 61be 2d49 e3bd ed71 19bd c688 823d
00000170: 1640 7bbe 4de4 52be 3d62 c43d 5f84 21bd
00000180: 9fab a0bd 552d ed3d d85a ab3d dbd3 f23d
00000190: a2ec ae3d 9c31 50be 4888 27be d390 e2bc
000001a0: 573d 693e ab8d 26be 3009 37be 754a 6ebe
000001b0: 23d0 f7bd 5b32 7e3e 074f 673e 2733 0f3e
000001c0: c9db 01be f081 5ebe 6893 6b3e a11a 58be
000001d0: 34b6 713e c504 4dbd 4a43 483e da88 67be
000001e0: 747c 97bc dcf5 373e 166d 423c f541 54be
000001f0: dc1c 9b3d 6ebe 40be 30db 51be 703b 58be
00000200: d65f 77bd 8794 623d 217a 73be 554f 0d3e
00000210: 109c 60bd d4b5 6f3e d580 3f3e ca5a 5e3e
00000220: 8b3f 01be e9d0 e2bd 80b4 633e d599 09bd
00000230: c17b 623e 91c1 3fbe b47c 87bb d8c3 58be
00000240: d587 773e d061 933d 0981 303e e240 a0bd
00000250: 554d 033e 42b0 583b 06d3 863d 552f 75be
00000260: 2e09 613e 4f55 9bbd 71f2 bc3d b3ee 493e
00000270: 98a4 f2bd d92a 91bc 87d9 7b3c 2c15 713e
00000280: 4f0f 993d 43fd 923d 2d70 743e cac0 82bd
00000290: 5454 4abe 14c0 53be 1d65 1dbe 62d6 a33d
000002a0: 957e da3d f95e 46bd 0f04 00bc 1862 59be
000002b0: 4ec3 e7bd b605 57be f2d8 4a3e 4c7c 3bbe
000002c0: df7d 303e 2d2c 5ebe e63f 103e 19d9 f53d
000002d0: 1f0a 3e3e 82dd 6fbe 2d6e 833d 8e42 6f3d
000002e0: 0d21 a23d 2725 7c3e b2af 47be 9f2a 843d
000002f0: 9c6a 453e c9be 2e3c c387 cb3d c6ad 60be
00000300: aa16 263e 0fe3 383e 9081 78be b58c 97bd
00000310: 87e0 013e ccb1 46be 37ec d83d 50c7 4ebc
00000320: dbca 973d a3d5 dc3d fd20 5b3e 2513 17be
00000330: 01b7 62be f216 c03d 2dff 1bbe 20d9 a23d
00000340: f642 12be 97ad 6e3e 6fee 48be 27ef 173d
00000350: 16a0 443d 98d3 33be a5d7 08be a24f d7bd
00000360: a234 213d c125 f53d c22f 13be 40f6 563e
00000370: ca51 edbd efbc 7ebd 9b4e 703e 0bac 633e
00000380: 63cf e93d bfb6 473e 229c 353e fc7b cfbd
00000390: 6cb3 f83c 4998 563e c21e 703e 0e7f a8bd
000003a0: d661 4ebc abe3 a73c 9298 69bd 9512 db3d
000003b0: f244 873d 64a9 33be fb70 d0bd c8fa 79be
000003c0: 08dc 22be 1e7e 433e 474e 4bbe 9f4c 5dbd
000003d0: 92ad 33be 46a2 533d 1c01 3abd fb3d 283e
000003e0: cde9 1ebe f96b 09be d159 9bbb 0453 703a
000003f0: aed6 35bc 1a6c 14be a5fa 69bc 4c93 463d

encoder.layers.0.ffn.0.bias f4 [64]
0.1444612 -0.010450205 0.09694034 -0.14311692 0.06436465 0.23283932 -0.09031475 0.010417526
-0.19598208 0.21782175 0.0138269365 -0.08710133 -0.21656977 -0.16532244 0.18893749 -0.22670986
-0.10606047 -0.014337032 0.20964696 0.023809668 0.12420802 0.103863396 -0.13589793 0.20297341
-0.15377264 -0.076636694 0.07529782 -0.18239671 -0.18151993 0.024209976 -0.011499778 0.15071328
0.1612302 -0.023354793 0.15796953 0.0845998 -0.1468762 0.21594915 -0.041422486 -0.24358124
-0.08399 -0.035673216 -0.1717462 0.10558497 -0.011975012 -0.12301513 0.13251352 0.049127355
-0.0647313 0.20391606 0.10368758 0.10982516 0.22682492 -0.07949191 -0.065744534 -0.22275439
0.069152705 -0.14225154 -0.2196891 0.037393358 -0.16379872 -0.09641517 -0.14246526 0.024613068
00000000: a3ed 133e 5637 2bbc a888 c63d 3e8d 12be
00000010: 9dd1 833d 6e6d 6e3e f1f6 b8bd 45ae 2a3c
00000020: 87af 48be aa0c 5f3e 608a 623c 2f62 b2bd
00000030: 77c4 5dbe 494a 29be d478 413e a126 68be
00000040: 3b36 d9bd dfe5 6abc b1ad 563e 7e0c c33c
00000050: c660 fe3d 55b6 d43d d428 0bbe 43d8 4f3e
00000060: 9376 1dbe b3f3 9cbd be35 9a3d 34c6 3abe
00000070: 5ce0 39be 0054 c63c 9169 3cbc 9554 1a3e
00000080: 8819 253e 8d52 bfbc c4c2 213e a942 ad3d
00000090: b766 16be c621 5d3e a0aa 29bd 5c6d 79be
000000a0: f302 acbd 141e 12bd 3cde 2fbe ef3c d83d
000000b0: d732 44bc 5bef fbbd a0b1 073e c439 493d
000000c0: d891 84bd 5fcf 503e 275a d43d 03ec e03d
000000d0: cb44 683e a8cc a2bd 12a5 86bd ba19 64be
000000e0: ef9f 8d3d 63aa 11be 2ef6 60be c729 193d
000000f0: daba 27be 5175 c5bd 6ae2 11be 58a1 c93c
